node {
  name: "FirstConv2DLayer_input"
  op: "Placeholder"
  attr {
    key: "dtype"
    value {
      type: DT_FLOAT
    }
  }
  attr {
    key: "shape"
    value {
      shape {
        dim {
          size: -1
        }
        dim {
          size: 20
        }
        dim {
          size: 20
        }
        dim {
          size: 3
        }
      }
    }
  }
}
node {
  name: "FirstConv2DLayer/random_uniform/shape"
  op: "Const"
  attr {
    key: "dtype"
    value {
      type: DT_INT32
    }
  }
  attr {
    key: "value"
    value {
      tensor {
        dtype: DT_INT32
        tensor_shape {
          dim {
            size: 4
          }
        }
        tensor_content: "\003\000\000\000\003\000\000\000\003\000\000\000 \000\000\000"
      }
    }
  }
}
node {
  name: "FirstConv2DLayer/random_uniform/min"
  op: "Const"
  attr {
    key: "dtype"
    value {
      type: DT_FLOAT
    }
  }
  attr {
    key: "value"
    value {
      tensor {
        dtype: DT_FLOAT
        tensor_shape {
        }
        float_val: -0.1380131095647812
      }
    }
  }
}
node {
  name: "FirstConv2DLayer/random_uniform/max"
  op: "Const"
  attr {
    key: "dtype"
    value {
      type: DT_FLOAT
    }
  }
  attr {
    key: "value"
    value {
      tensor {
        dtype: DT_FLOAT
        tensor_shape {
        }
        float_val: 0.1380131095647812
      }
    }
  }
}
node {
  name: "FirstConv2DLayer/random_uniform/RandomUniform"
  op: "RandomUniform"
  input: "FirstConv2DLayer/random_uniform/shape"
  attr {
    key: "T"
    value {
      type: DT_INT32
    }
  }
  attr {
    key: "dtype"
    value {
      type: DT_FLOAT
    }
  }
  attr {
    key: "seed"
    value {
      i: 87654321
    }
  }
  attr {
    key: "seed2"
    value {
      i: 2080022
    }
  }
}
node {
  name: "FirstConv2DLayer/random_uniform/sub"
  op: "Sub"
  input: "FirstConv2DLayer/random_uniform/max"
  input: "FirstConv2DLayer/random_uniform/min"
  attr {
    key: "T"
    value {
      type: DT_FLOAT
    }
  }
}
node {
  name: "FirstConv2DLayer/random_uniform/mul"
  op: "Mul"
  input: "FirstConv2DLayer/random_uniform/RandomUniform"
  input: "FirstConv2DLayer/random_uniform/sub"
  attr {
    key: "T"
    value {
      type: DT_FLOAT
    }
  }
}
node {
  name: "FirstConv2DLayer/random_uniform"
  op: "Add"
  input: "FirstConv2DLayer/random_uniform/mul"
  input: "FirstConv2DLayer/random_uniform/min"
  attr {
    key: "T"
    value {
      type: DT_FLOAT
    }
  }
}
node {
  name: "FirstConv2DLayer/kernel"
  op: "VariableV2"
  attr {
    key: "container"
    value {
      s: ""
    }
  }
  attr {
    key: "dtype"
    value {
      type: DT_FLOAT
    }
  }
  attr {
    key: "shape"
    value {
      shape {
        dim {
          size: 3
        }
        dim {
          size: 3
        }
        dim {
          size: 3
        }
        dim {
          size: 32
        }
      }
    }
  }
  attr {
    key: "shared_name"
    value {
      s: ""
    }
  }
}
node {
  name: "FirstConv2DLayer/kernel/Assign"
  op: "Assign"
  input: "FirstConv2DLayer/kernel"
  input: "FirstConv2DLayer/random_uniform"
  attr {
    key: "T"
    value {
      type: DT_FLOAT
    }
  }
  attr {
    key: "_class"
    value {
      list {
        s: "loc:@FirstConv2DLayer/kernel"
      }
    }
  }
  attr {
    key: "use_locking"
    value {
      b: true
    }
  }
  attr {
    key: "validate_shape"
    value {
      b: true
    }
  }
}
node {
  name: "FirstConv2DLayer/kernel/read"
  op: "Identity"
  input: "FirstConv2DLayer/kernel"
  attr {
    key: "T"
    value {
      type: DT_FLOAT
    }
  }
  attr {
    key: "_class"
    value {
      list {
        s: "loc:@FirstConv2DLayer/kernel"
      }
    }
  }
}
node {
  name: "FirstConv2DLayer/Const"
  op: "Const"
  attr {
    key: "dtype"
    value {
      type: DT_FLOAT
    }
  }
  attr {
    key: "value"
    value {
      tensor {
        dtype: DT_FLOAT
        tensor_shape {
          dim {
            size: 32
          }
        }
        float_val: 0.0
      }
    }
  }
}
node {
  name: "FirstConv2DLayer/bias"
  op: "VariableV2"
  attr {
    key: "container"
    value {
      s: ""
    }
  }
  attr {
    key: "dtype"
    value {
      type: DT_FLOAT
    }
  }
  attr {
    key: "shape"
    value {
      shape {
        dim {
          size: 32
        }
      }
    }
  }
  attr {
    key: "shared_name"
    value {
      s: ""
    }
  }
}
node {
  name: "FirstConv2DLayer/bias/Assign"
  op: "Assign"
  input: "FirstConv2DLayer/bias"
  input: "FirstConv2DLayer/Const"
  attr {
    key: "T"
    value {
      type: DT_FLOAT
    }
  }
  attr {
    key: "_class"
    value {
      list {
        s: "loc:@FirstConv2DLayer/bias"
      }
    }
  }
  attr {
    key: "use_locking"
    value {
      b: true
    }
  }
  attr {
    key: "validate_shape"
    value {
      b: true
    }
  }
}
node {
  name: "FirstConv2DLayer/bias/read"
  op: "Identity"
  input: "FirstConv2DLayer/bias"
  attr {
    key: "T"
    value {
      type: DT_FLOAT
    }
  }
  attr {
    key: "_class"
    value {
      list {
        s: "loc:@FirstConv2DLayer/bias"
      }
    }
  }
}
node {
  name: "FirstConv2DLayer/convolution/dilation_rate"
  op: "Const"
  attr {
    key: "dtype"
    value {
      type: DT_INT32
    }
  }
  attr {
    key: "value"
    value {
      tensor {
        dtype: DT_INT32
        tensor_shape {
          dim {
            size: 2
          }
        }
        tensor_content: "\001\000\000\000\001\000\000\000"
      }
    }
  }
}
node {
  name: "FirstConv2DLayer/convolution"
  op: "Conv2D"
  input: "FirstConv2DLayer_input"
  input: "FirstConv2DLayer/kernel/read"
  attr {
    key: "T"
    value {
      type: DT_FLOAT
    }
  }
  attr {
    key: "data_format"
    value {
      s: "NHWC"
    }
  }
  attr {
    key: "dilations"
    value {
      list {
        i: 1
        i: 1
        i: 1
        i: 1
      }
    }
  }
  attr {
    key: "padding"
    value {
      s: "VALID"
    }
  }
  attr {
    key: "strides"
    value {
      list {
        i: 1
        i: 1
        i: 1
        i: 1
      }
    }
  }
  attr {
    key: "use_cudnn_on_gpu"
    value {
      b: true
    }
  }
}
node {
  name: "FirstConv2DLayer/BiasAdd"
  op: "BiasAdd"
  input: "FirstConv2DLayer/convolution"
  input: "FirstConv2DLayer/bias/read"
  attr {
    key: "T"
    value {
      type: DT_FLOAT
    }
  }
  attr {
    key: "data_format"
    value {
      s: "NHWC"
    }
  }
}
node {
  name: "FirstConv2DLayer/Relu"
  op: "Relu"
  input: "FirstConv2DLayer/BiasAdd"
  attr {
    key: "T"
    value {
      type: DT_FLOAT
    }
  }
}
node {
  name: "max_pooling2d_1/MaxPool"
  op: "MaxPool"
  input: "FirstConv2DLayer/Relu"
  attr {
    key: "T"
    value {
      type: DT_FLOAT
    }
  }
  attr {
    key: "data_format"
    value {
      s: "NHWC"
    }
  }
  attr {
    key: "ksize"
    value {
      list {
        i: 1
        i: 2
        i: 2
        i: 1
      }
    }
  }
  attr {
    key: "padding"
    value {
      s: "VALID"
    }
  }
  attr {
    key: "strides"
    value {
      list {
        i: 1
        i: 2
        i: 2
        i: 1
      }
    }
  }
}
node {
  name: "SecondConv2DLayer/random_uniform/shape"
  op: "Const"
  attr {
    key: "dtype"
    value {
      type: DT_INT32
    }
  }
  attr {
    key: "value"
    value {
      tensor {
        dtype: DT_INT32
        tensor_shape {
          dim {
            size: 4
          }
        }
        tensor_content: "\003\000\000\000\003\000\000\000 \000\000\000 \000\000\000"
      }
    }
  }
}
node {
  name: "SecondConv2DLayer/random_uniform/min"
  op: "Const"
  attr {
    key: "dtype"
    value {
      type: DT_FLOAT
    }
  }
  attr {
    key: "value"
    value {
      tensor {
        dtype: DT_FLOAT
        tensor_shape {
        }
        float_val: -0.10206207633018494
      }
    }
  }
}
node {
  name: "SecondConv2DLayer/random_uniform/max"
  op: "Const"
  attr {
    key: "dtype"
    value {
      type: DT_FLOAT
    }
  }
  attr {
    key: "value"
    value {
      tensor {
        dtype: DT_FLOAT
        tensor_shape {
        }
        float_val: 0.10206207633018494
      }
    }
  }
}
node {
  name: "SecondConv2DLayer/random_uniform/RandomUniform"
  op: "RandomUniform"
  input: "SecondConv2DLayer/random_uniform/shape"
  attr {
    key: "T"
    value {
      type: DT_INT32
    }
  }
  attr {
    key: "dtype"
    value {
      type: DT_FLOAT
    }
  }
  attr {
    key: "seed"
    value {
      i: 87654321
    }
  }
  attr {
    key: "seed2"
    value {
      i: 3527291
    }
  }
}
node {
  name: "SecondConv2DLayer/random_uniform/sub"
  op: "Sub"
  input: "SecondConv2DLayer/random_uniform/max"
  input: "SecondConv2DLayer/random_uniform/min"
  attr {
    key: "T"
    value {
      type: DT_FLOAT
    }
  }
}
node {
  name: "SecondConv2DLayer/random_uniform/mul"
  op: "Mul"
  input: "SecondConv2DLayer/random_uniform/RandomUniform"
  input: "SecondConv2DLayer/random_uniform/sub"
  attr {
    key: "T"
    value {
      type: DT_FLOAT
    }
  }
}
node {
  name: "SecondConv2DLayer/random_uniform"
  op: "Add"
  input: "SecondConv2DLayer/random_uniform/mul"
  input: "SecondConv2DLayer/random_uniform/min"
  attr {
    key: "T"
    value {
      type: DT_FLOAT
    }
  }
}
node {
  name: "SecondConv2DLayer/kernel"
  op: "VariableV2"
  attr {
    key: "container"
    value {
      s: ""
    }
  }
  attr {
    key: "dtype"
    value {
      type: DT_FLOAT
    }
  }
  attr {
    key: "shape"
    value {
      shape {
        dim {
          size: 3
        }
        dim {
          size: 3
        }
        dim {
          size: 32
        }
        dim {
          size: 32
        }
      }
    }
  }
  attr {
    key: "shared_name"
    value {
      s: ""
    }
  }
}
node {
  name: "SecondConv2DLayer/kernel/Assign"
  op: "Assign"
  input: "SecondConv2DLayer/kernel"
  input: "SecondConv2DLayer/random_uniform"
  attr {
    key: "T"
    value {
      type: DT_FLOAT
    }
  }
  attr {
    key: "_class"
    value {
      list {
        s: "loc:@SecondConv2DLayer/kernel"
      }
    }
  }
  attr {
    key: "use_locking"
    value {
      b: true
    }
  }
  attr {
    key: "validate_shape"
    value {
      b: true
    }
  }
}
node {
  name: "SecondConv2DLayer/kernel/read"
  op: "Identity"
  input: "SecondConv2DLayer/kernel"
  attr {
    key: "T"
    value {
      type: DT_FLOAT
    }
  }
  attr {
    key: "_class"
    value {
      list {
        s: "loc:@SecondConv2DLayer/kernel"
      }
    }
  }
}
node {
  name: "SecondConv2DLayer/Const"
  op: "Const"
  attr {
    key: "dtype"
    value {
      type: DT_FLOAT
    }
  }
  attr {
    key: "value"
    value {
      tensor {
        dtype: DT_FLOAT
        tensor_shape {
          dim {
            size: 32
          }
        }
        float_val: 0.0
      }
    }
  }
}
node {
  name: "SecondConv2DLayer/bias"
  op: "VariableV2"
  attr {
    key: "container"
    value {
      s: ""
    }
  }
  attr {
    key: "dtype"
    value {
      type: DT_FLOAT
    }
  }
  attr {
    key: "shape"
    value {
      shape {
        dim {
          size: 32
        }
      }
    }
  }
  attr {
    key: "shared_name"
    value {
      s: ""
    }
  }
}
node {
  name: "SecondConv2DLayer/bias/Assign"
  op: "Assign"
  input: "SecondConv2DLayer/bias"
  input: "SecondConv2DLayer/Const"
  attr {
    key: "T"
    value {
      type: DT_FLOAT
    }
  }
  attr {
    key: "_class"
    value {
      list {
        s: "loc:@SecondConv2DLayer/bias"
      }
    }
  }
  attr {
    key: "use_locking"
    value {
      b: true
    }
  }
  attr {
    key: "validate_shape"
    value {
      b: true
    }
  }
}
node {
  name: "SecondConv2DLayer/bias/read"
  op: "Identity"
  input: "SecondConv2DLayer/bias"
  attr {
    key: "T"
    value {
      type: DT_FLOAT
    }
  }
  attr {
    key: "_class"
    value {
      list {
        s: "loc:@SecondConv2DLayer/bias"
      }
    }
  }
}
node {
  name: "SecondConv2DLayer/convolution/dilation_rate"
  op: "Const"
  attr {
    key: "dtype"
    value {
      type: DT_INT32
    }
  }
  attr {
    key: "value"
    value {
      tensor {
        dtype: DT_INT32
        tensor_shape {
          dim {
            size: 2
          }
        }
        tensor_content: "\001\000\000\000\001\000\000\000"
      }
    }
  }
}
node {
  name: "SecondConv2DLayer/convolution"
  op: "Conv2D"
  input: "max_pooling2d_1/MaxPool"
  input: "SecondConv2DLayer/kernel/read"
  attr {
    key: "T"
    value {
      type: DT_FLOAT
    }
  }
  attr {
    key: "data_format"
    value {
      s: "NHWC"
    }
  }
  attr {
    key: "dilations"
    value {
      list {
        i: 1
        i: 1
        i: 1
        i: 1
      }
    }
  }
  attr {
    key: "padding"
    value {
      s: "VALID"
    }
  }
  attr {
    key: "strides"
    value {
      list {
        i: 1
        i: 1
        i: 1
        i: 1
      }
    }
  }
  attr {
    key: "use_cudnn_on_gpu"
    value {
      b: true
    }
  }
}
node {
  name: "SecondConv2DLayer/BiasAdd"
  op: "BiasAdd"
  input: "SecondConv2DLayer/convolution"
  input: "SecondConv2DLayer/bias/read"
  attr {
    key: "T"
    value {
      type: DT_FLOAT
    }
  }
  attr {
    key: "data_format"
    value {
      s: "NHWC"
    }
  }
}
node {
  name: "SecondConv2DLayer/Relu"
  op: "Relu"
  input: "SecondConv2DLayer/BiasAdd"
  attr {
    key: "T"
    value {
      type: DT_FLOAT
    }
  }
}
node {
  name: "max_pooling2d_2/MaxPool"
  op: "MaxPool"
  input: "SecondConv2DLayer/Relu"
  attr {
    key: "T"
    value {
      type: DT_FLOAT
    }
  }
  attr {
    key: "data_format"
    value {
      s: "NHWC"
    }
  }
  attr {
    key: "ksize"
    value {
      list {
        i: 1
        i: 2
        i: 2
        i: 1
      }
    }
  }
  attr {
    key: "padding"
    value {
      s: "VALID"
    }
  }
  attr {
    key: "strides"
    value {
      list {
        i: 1
        i: 2
        i: 2
        i: 1
      }
    }
  }
}
node {
  name: "flatten_1/Shape"
  op: "Shape"
  input: "max_pooling2d_2/MaxPool"
  attr {
    key: "T"
    value {
      type: DT_FLOAT
    }
  }
  attr {
    key: "out_type"
    value {
      type: DT_INT32
    }
  }
}
node {
  name: "flatten_1/strided_slice/stack"
  op: "Const"
  attr {
    key: "dtype"
    value {
      type: DT_INT32
    }
  }
  attr {
    key: "value"
    value {
      tensor {
        dtype: DT_INT32
        tensor_shape {
          dim {
            size: 1
          }
        }
        int_val: 1
      }
    }
  }
}
node {
  name: "flatten_1/strided_slice/stack_1"
  op: "Const"
  attr {
    key: "dtype"
    value {
      type: DT_INT32
    }
  }
  attr {
    key: "value"
    value {
      tensor {
        dtype: DT_INT32
        tensor_shape {
          dim {
            size: 1
          }
        }
        int_val: 0
      }
    }
  }
}
node {
  name: "flatten_1/strided_slice/stack_2"
  op: "Const"
  attr {
    key: "dtype"
    value {
      type: DT_INT32
    }
  }
  attr {
    key: "value"
    value {
      tensor {
        dtype: DT_INT32
        tensor_shape {
          dim {
            size: 1
          }
        }
        int_val: 1
      }
    }
  }
}
node {
  name: "flatten_1/strided_slice"
  op: "StridedSlice"
  input: "flatten_1/Shape"
  input: "flatten_1/strided_slice/stack"
  input: "flatten_1/strided_slice/stack_1"
  input: "flatten_1/strided_slice/stack_2"
  attr {
    key: "Index"
    value {
      type: DT_INT32
    }
  }
  attr {
    key: "T"
    value {
      type: DT_INT32
    }
  }
  attr {
    key: "begin_mask"
    value {
      i: 0
    }
  }
  attr {
    key: "ellipsis_mask"
    value {
      i: 0
    }
  }
  attr {
    key: "end_mask"
    value {
      i: 1
    }
  }
  attr {
    key: "new_axis_mask"
    value {
      i: 0
    }
  }
  attr {
    key: "shrink_axis_mask"
    value {
      i: 0
    }
  }
}
node {
  name: "flatten_1/Const"
  op: "Const"
  attr {
    key: "dtype"
    value {
      type: DT_INT32
    }
  }
  attr {
    key: "value"
    value {
      tensor {
        dtype: DT_INT32
        tensor_shape {
          dim {
            size: 1
          }
        }
        int_val: 0
      }
    }
  }
}
node {
  name: "flatten_1/Prod"
  op: "Prod"
  input: "flatten_1/strided_slice"
  input: "flatten_1/Const"
  attr {
    key: "T"
    value {
      type: DT_INT32
    }
  }
  attr {
    key: "Tidx"
    value {
      type: DT_INT32
    }
  }
  attr {
    key: "keep_dims"
    value {
      b: false
    }
  }
}
node {
  name: "flatten_1/stack/0"
  op: "Const"
  attr {
    key: "dtype"
    value {
      type: DT_INT32
    }
  }
  attr {
    key: "value"
    value {
      tensor {
        dtype: DT_INT32
        tensor_shape {
        }
        int_val: -1
      }
    }
  }
}
node {
  name: "flatten_1/stack"
  op: "Pack"
  input: "flatten_1/stack/0"
  input: "flatten_1/Prod"
  attr {
    key: "N"
    value {
      i: 2
    }
  }
  attr {
    key: "T"
    value {
      type: DT_INT32
    }
  }
  attr {
    key: "axis"
    value {
      i: 0
    }
  }
}
node {
  name: "flatten_1/Reshape"
  op: "Reshape"
  input: "max_pooling2d_2/MaxPool"
  input: "flatten_1/stack"
  attr {
    key: "T"
    value {
      type: DT_FLOAT
    }
  }
  attr {
    key: "Tshape"
    value {
      type: DT_INT32
    }
  }
}
node {
  name: "dense_1/random_uniform/shape"
  op: "Const"
  attr {
    key: "dtype"
    value {
      type: DT_INT32
    }
  }
  attr {
    key: "value"
    value {
      tensor {
        dtype: DT_INT32
        tensor_shape {
          dim {
            size: 2
          }
        }
        tensor_content: " \001\000\000\200\000\000\000"
      }
    }
  }
}
node {
  name: "dense_1/random_uniform/min"
  op: "Const"
  attr {
    key: "dtype"
    value {
      type: DT_FLOAT
    }
  }
  attr {
    key: "value"
    value {
      tensor {
        dtype: DT_FLOAT
        tensor_shape {
        }
        float_val: -0.1200961172580719
      }
    }
  }
}
node {
  name: "dense_1/random_uniform/max"
  op: "Const"
  attr {
    key: "dtype"
    value {
      type: DT_FLOAT
    }
  }
  attr {
    key: "value"
    value {
      tensor {
        dtype: DT_FLOAT
        tensor_shape {
        }
        float_val: 0.1200961172580719
      }
    }
  }
}
node {
  name: "dense_1/random_uniform/RandomUniform"
  op: "RandomUniform"
  input: "dense_1/random_uniform/shape"
  attr {
    key: "T"
    value {
      type: DT_INT32
    }
  }
  attr {
    key: "dtype"
    value {
      type: DT_FLOAT
    }
  }
  attr {
    key: "seed"
    value {
      i: 87654321
    }
  }
  attr {
    key: "seed2"
    value {
      i: 6534196
    }
  }
}
node {
  name: "dense_1/random_uniform/sub"
  op: "Sub"
  input: "dense_1/random_uniform/max"
  input: "dense_1/random_uniform/min"
  attr {
    key: "T"
    value {
      type: DT_FLOAT
    }
  }
}
node {
  name: "dense_1/random_uniform/mul"
  op: "Mul"
  input: "dense_1/random_uniform/RandomUniform"
  input: "dense_1/random_uniform/sub"
  attr {
    key: "T"
    value {
      type: DT_FLOAT
    }
  }
}
node {
  name: "dense_1/random_uniform"
  op: "Add"
  input: "dense_1/random_uniform/mul"
  input: "dense_1/random_uniform/min"
  attr {
    key: "T"
    value {
      type: DT_FLOAT
    }
  }
}
node {
  name: "dense_1/kernel"
  op: "VariableV2"
  attr {
    key: "container"
    value {
      s: ""
    }
  }
  attr {
    key: "dtype"
    value {
      type: DT_FLOAT
    }
  }
  attr {
    key: "shape"
    value {
      shape {
        dim {
          size: 288
        }
        dim {
          size: 128
        }
      }
    }
  }
  attr {
    key: "shared_name"
    value {
      s: ""
    }
  }
}
node {
  name: "dense_1/kernel/Assign"
  op: "Assign"
  input: "dense_1/kernel"
  input: "dense_1/random_uniform"
  attr {
    key: "T"
    value {
      type: DT_FLOAT
    }
  }
  attr {
    key: "_class"
    value {
      list {
        s: "loc:@dense_1/kernel"
      }
    }
  }
  attr {
    key: "use_locking"
    value {
      b: true
    }
  }
  attr {
    key: "validate_shape"
    value {
      b: true
    }
  }
}
node {
  name: "dense_1/kernel/read"
  op: "Identity"
  input: "dense_1/kernel"
  attr {
    key: "T"
    value {
      type: DT_FLOAT
    }
  }
  attr {
    key: "_class"
    value {
      list {
        s: "loc:@dense_1/kernel"
      }
    }
  }
}
node {
  name: "dense_1/Const"
  op: "Const"
  attr {
    key: "dtype"
    value {
      type: DT_FLOAT
    }
  }
  attr {
    key: "value"
    value {
      tensor {
        dtype: DT_FLOAT
        tensor_shape {
          dim {
            size: 128
          }
        }
        float_val: 0.0
      }
    }
  }
}
node {
  name: "dense_1/bias"
  op: "VariableV2"
  attr {
    key: "container"
    value {
      s: ""
    }
  }
  attr {
    key: "dtype"
    value {
      type: DT_FLOAT
    }
  }
  attr {
    key: "shape"
    value {
      shape {
        dim {
          size: 128
        }
      }
    }
  }
  attr {
    key: "shared_name"
    value {
      s: ""
    }
  }
}
node {
  name: "dense_1/bias/Assign"
  op: "Assign"
  input: "dense_1/bias"
  input: "dense_1/Const"
  attr {
    key: "T"
    value {
      type: DT_FLOAT
    }
  }
  attr {
    key: "_class"
    value {
      list {
        s: "loc:@dense_1/bias"
      }
    }
  }
  attr {
    key: "use_locking"
    value {
      b: true
    }
  }
  attr {
    key: "validate_shape"
    value {
      b: true
    }
  }
}
node {
  name: "dense_1/bias/read"
  op: "Identity"
  input: "dense_1/bias"
  attr {
    key: "T"
    value {
      type: DT_FLOAT
    }
  }
  attr {
    key: "_class"
    value {
      list {
        s: "loc:@dense_1/bias"
      }
    }
  }
}
node {
  name: "dense_1/MatMul"
  op: "MatMul"
  input: "flatten_1/Reshape"
  input: "dense_1/kernel/read"
  attr {
    key: "T"
    value {
      type: DT_FLOAT
    }
  }
  attr {
    key: "transpose_a"
    value {
      b: false
    }
  }
  attr {
    key: "transpose_b"
    value {
      b: false
    }
  }
}
node {
  name: "dense_1/BiasAdd"
  op: "BiasAdd"
  input: "dense_1/MatMul"
  input: "dense_1/bias/read"
  attr {
    key: "T"
    value {
      type: DT_FLOAT
    }
  }
  attr {
    key: "data_format"
    value {
      s: "NHWC"
    }
  }
}
node {
  name: "dense_1/Relu"
  op: "Relu"
  input: "dense_1/BiasAdd"
  attr {
    key: "T"
    value {
      type: DT_FLOAT
    }
  }
}
node {
  name: "Probabilities/random_uniform/shape"
  op: "Const"
  attr {
    key: "dtype"
    value {
      type: DT_INT32
    }
  }
  attr {
    key: "value"
    value {
      tensor {
        dtype: DT_INT32
        tensor_shape {
          dim {
            size: 2
          }
        }
        tensor_content: "\200\000\000\000\n\000\000\000"
      }
    }
  }
}
node {
  name: "Probabilities/random_uniform/min"
  op: "Const"
  attr {
    key: "dtype"
    value {
      type: DT_FLOAT
    }
  }
  attr {
    key: "value"
    value {
      tensor {
        dtype: DT_FLOAT
        tensor_shape {
        }
        float_val: -0.20851440727710724
      }
    }
  }
}
node {
  name: "Probabilities/random_uniform/max"
  op: "Const"
  attr {
    key: "dtype"
    value {
      type: DT_FLOAT
    }
  }
  attr {
    key: "value"
    value {
      tensor {
        dtype: DT_FLOAT
        tensor_shape {
        }
        float_val: 0.20851440727710724
      }
    }
  }
}
node {
  name: "Probabilities/random_uniform/RandomUniform"
  op: "RandomUniform"
  input: "Probabilities/random_uniform/shape"
  attr {
    key: "T"
    value {
      type: DT_INT32
    }
  }
  attr {
    key: "dtype"
    value {
      type: DT_FLOAT
    }
  }
  attr {
    key: "seed"
    value {
      i: 87654321
    }
  }
  attr {
    key: "seed2"
    value {
      i: 1189215
    }
  }
}
node {
  name: "Probabilities/random_uniform/sub"
  op: "Sub"
  input: "Probabilities/random_uniform/max"
  input: "Probabilities/random_uniform/min"
  attr {
    key: "T"
    value {
      type: DT_FLOAT
    }
  }
}
node {
  name: "Probabilities/random_uniform/mul"
  op: "Mul"
  input: "Probabilities/random_uniform/RandomUniform"
  input: "Probabilities/random_uniform/sub"
  attr {
    key: "T"
    value {
      type: DT_FLOAT
    }
  }
}
node {
  name: "Probabilities/random_uniform"
  op: "Add"
  input: "Probabilities/random_uniform/mul"
  input: "Probabilities/random_uniform/min"
  attr {
    key: "T"
    value {
      type: DT_FLOAT
    }
  }
}
node {
  name: "Probabilities/kernel"
  op: "VariableV2"
  attr {
    key: "container"
    value {
      s: ""
    }
  }
  attr {
    key: "dtype"
    value {
      type: DT_FLOAT
    }
  }
  attr {
    key: "shape"
    value {
      shape {
        dim {
          size: 128
        }
        dim {
          size: 10
        }
      }
    }
  }
  attr {
    key: "shared_name"
    value {
      s: ""
    }
  }
}
node {
  name: "Probabilities/kernel/Assign"
  op: "Assign"
  input: "Probabilities/kernel"
  input: "Probabilities/random_uniform"
  attr {
    key: "T"
    value {
      type: DT_FLOAT
    }
  }
  attr {
    key: "_class"
    value {
      list {
        s: "loc:@Probabilities/kernel"
      }
    }
  }
  attr {
    key: "use_locking"
    value {
      b: true
    }
  }
  attr {
    key: "validate_shape"
    value {
      b: true
    }
  }
}
node {
  name: "Probabilities/kernel/read"
  op: "Identity"
  input: "Probabilities/kernel"
  attr {
    key: "T"
    value {
      type: DT_FLOAT
    }
  }
  attr {
    key: "_class"
    value {
      list {
        s: "loc:@Probabilities/kernel"
      }
    }
  }
}
node {
  name: "Probabilities/Const"
  op: "Const"
  attr {
    key: "dtype"
    value {
      type: DT_FLOAT
    }
  }
  attr {
    key: "value"
    value {
      tensor {
        dtype: DT_FLOAT
        tensor_shape {
          dim {
            size: 10
          }
        }
        float_val: 0.0
      }
    }
  }
}
node {
  name: "Probabilities/bias"
  op: "VariableV2"
  attr {
    key: "container"
    value {
      s: ""
    }
  }
  attr {
    key: "dtype"
    value {
      type: DT_FLOAT
    }
  }
  attr {
    key: "shape"
    value {
      shape {
        dim {
          size: 10
        }
      }
    }
  }
  attr {
    key: "shared_name"
    value {
      s: ""
    }
  }
}
node {
  name: "Probabilities/bias/Assign"
  op: "Assign"
  input: "Probabilities/bias"
  input: "Probabilities/Const"
  attr {
    key: "T"
    value {
      type: DT_FLOAT
    }
  }
  attr {
    key: "_class"
    value {
      list {
        s: "loc:@Probabilities/bias"
      }
    }
  }
  attr {
    key: "use_locking"
    value {
      b: true
    }
  }
  attr {
    key: "validate_shape"
    value {
      b: true
    }
  }
}
node {
  name: "Probabilities/bias/read"
  op: "Identity"
  input: "Probabilities/bias"
  attr {
    key: "T"
    value {
      type: DT_FLOAT
    }
  }
  attr {
    key: "_class"
    value {
      list {
        s: "loc:@Probabilities/bias"
      }
    }
  }
}
node {
  name: "Probabilities/MatMul"
  op: "MatMul"
  input: "dense_1/Relu"
  input: "Probabilities/kernel/read"
  attr {
    key: "T"
    value {
      type: DT_FLOAT
    }
  }
  attr {
    key: "transpose_a"
    value {
      b: false
    }
  }
  attr {
    key: "transpose_b"
    value {
      b: false
    }
  }
}
node {
  name: "Probabilities/BiasAdd"
  op: "BiasAdd"
  input: "Probabilities/MatMul"
  input: "Probabilities/bias/read"
  attr {
    key: "T"
    value {
      type: DT_FLOAT
    }
  }
  attr {
    key: "data_format"
    value {
      s: "NHWC"
    }
  }
}
node {
  name: "Probabilities/Softmax"
  op: "Softmax"
  input: "Probabilities/BiasAdd"
  attr {
    key: "T"
    value {
      type: DT_FLOAT
    }
  }
}
node {
  name: "Placeholder"
  op: "Placeholder"
  attr {
    key: "dtype"
    value {
      type: DT_FLOAT
    }
  }
  attr {
    key: "shape"
    value {
      shape {
        dim {
          size: 3
        }
        dim {
          size: 3
        }
        dim {
          size: 3
        }
        dim {
          size: 32
        }
      }
    }
  }
}
node {
  name: "Assign"
  op: "Assign"
  input: "FirstConv2DLayer/kernel"
  input: "Placeholder"
  attr {
    key: "T"
    value {
      type: DT_FLOAT
    }
  }
  attr {
    key: "_class"
    value {
      list {
        s: "loc:@FirstConv2DLayer/kernel"
      }
    }
  }
  attr {
    key: "use_locking"
    value {
      b: false
    }
  }
  attr {
    key: "validate_shape"
    value {
      b: true
    }
  }
}
node {
  name: "Placeholder_1"
  op: "Placeholder"
  attr {
    key: "dtype"
    value {
      type: DT_FLOAT
    }
  }
  attr {
    key: "shape"
    value {
      shape {
        dim {
          size: 32
        }
      }
    }
  }
}
node {
  name: "Assign_1"
  op: "Assign"
  input: "FirstConv2DLayer/bias"
  input: "Placeholder_1"
  attr {
    key: "T"
    value {
      type: DT_FLOAT
    }
  }
  attr {
    key: "_class"
    value {
      list {
        s: "loc:@FirstConv2DLayer/bias"
      }
    }
  }
  attr {
    key: "use_locking"
    value {
      b: false
    }
  }
  attr {
    key: "validate_shape"
    value {
      b: true
    }
  }
}
node {
  name: "Placeholder_2"
  op: "Placeholder"
  attr {
    key: "dtype"
    value {
      type: DT_FLOAT
    }
  }
  attr {
    key: "shape"
    value {
      shape {
        dim {
          size: 3
        }
        dim {
          size: 3
        }
        dim {
          size: 32
        }
        dim {
          size: 32
        }
      }
    }
  }
}
node {
  name: "Assign_2"
  op: "Assign"
  input: "SecondConv2DLayer/kernel"
  input: "Placeholder_2"
  attr {
    key: "T"
    value {
      type: DT_FLOAT
    }
  }
  attr {
    key: "_class"
    value {
      list {
        s: "loc:@SecondConv2DLayer/kernel"
      }
    }
  }
  attr {
    key: "use_locking"
    value {
      b: false
    }
  }
  attr {
    key: "validate_shape"
    value {
      b: true
    }
  }
}
node {
  name: "Placeholder_3"
  op: "Placeholder"
  attr {
    key: "dtype"
    value {
      type: DT_FLOAT
    }
  }
  attr {
    key: "shape"
    value {
      shape {
        dim {
          size: 32
        }
      }
    }
  }
}
node {
  name: "Assign_3"
  op: "Assign"
  input: "SecondConv2DLayer/bias"
  input: "Placeholder_3"
  attr {
    key: "T"
    value {
      type: DT_FLOAT
    }
  }
  attr {
    key: "_class"
    value {
      list {
        s: "loc:@SecondConv2DLayer/bias"
      }
    }
  }
  attr {
    key: "use_locking"
    value {
      b: false
    }
  }
  attr {
    key: "validate_shape"
    value {
      b: true
    }
  }
}
node {
  name: "Placeholder_4"
  op: "Placeholder"
  attr {
    key: "dtype"
    value {
      type: DT_FLOAT
    }
  }
  attr {
    key: "shape"
    value {
      shape {
        dim {
          size: 288
        }
        dim {
          size: 128
        }
      }
    }
  }
}
node {
  name: "Assign_4"
  op: "Assign"
  input: "dense_1/kernel"
  input: "Placeholder_4"
  attr {
    key: "T"
    value {
      type: DT_FLOAT
    }
  }
  attr {
    key: "_class"
    value {
      list {
        s: "loc:@dense_1/kernel"
      }
    }
  }
  attr {
    key: "use_locking"
    value {
      b: false
    }
  }
  attr {
    key: "validate_shape"
    value {
      b: true
    }
  }
}
node {
  name: "Placeholder_5"
  op: "Placeholder"
  attr {
    key: "dtype"
    value {
      type: DT_FLOAT
    }
  }
  attr {
    key: "shape"
    value {
      shape {
        dim {
          size: 128
        }
      }
    }
  }
}
node {
  name: "Assign_5"
  op: "Assign"
  input: "dense_1/bias"
  input: "Placeholder_5"
  attr {
    key: "T"
    value {
      type: DT_FLOAT
    }
  }
  attr {
    key: "_class"
    value {
      list {
        s: "loc:@dense_1/bias"
      }
    }
  }
  attr {
    key: "use_locking"
    value {
      b: false
    }
  }
  attr {
    key: "validate_shape"
    value {
      b: true
    }
  }
}
node {
  name: "Placeholder_6"
  op: "Placeholder"
  attr {
    key: "dtype"
    value {
      type: DT_FLOAT
    }
  }
  attr {
    key: "shape"
    value {
      shape {
        dim {
          size: 128
        }
        dim {
          size: 10
        }
      }
    }
  }
}
node {
  name: "Assign_6"
  op: "Assign"
  input: "Probabilities/kernel"
  input: "Placeholder_6"
  attr {
    key: "T"
    value {
      type: DT_FLOAT
    }
  }
  attr {
    key: "_class"
    value {
      list {
        s: "loc:@Probabilities/kernel"
      }
    }
  }
  attr {
    key: "use_locking"
    value {
      b: false
    }
  }
  attr {
    key: "validate_shape"
    value {
      b: true
    }
  }
}
node {
  name: "Placeholder_7"
  op: "Placeholder"
  attr {
    key: "dtype"
    value {
      type: DT_FLOAT
    }
  }
  attr {
    key: "shape"
    value {
      shape {
        dim {
          size: 10
        }
      }
    }
  }
}
node {
  name: "Assign_7"
  op: "Assign"
  input: "Probabilities/bias"
  input: "Placeholder_7"
  attr {
    key: "T"
    value {
      type: DT_FLOAT
    }
  }
  attr {
    key: "_class"
    value {
      list {
        s: "loc:@Probabilities/bias"
      }
    }
  }
  attr {
    key: "use_locking"
    value {
      b: false
    }
  }
  attr {
    key: "validate_shape"
    value {
      b: true
    }
  }
}
node {
  name: "IsVariableInitialized"
  op: "IsVariableInitialized"
  input: "FirstConv2DLayer/kernel"
  attr {
    key: "_class"
    value {
      list {
        s: "loc:@FirstConv2DLayer/kernel"
      }
    }
  }
  attr {
    key: "dtype"
    value {
      type: DT_FLOAT
    }
  }
}
node {
  name: "IsVariableInitialized_1"
  op: "IsVariableInitialized"
  input: "FirstConv2DLayer/bias"
  attr {
    key: "_class"
    value {
      list {
        s: "loc:@FirstConv2DLayer/bias"
      }
    }
  }
  attr {
    key: "dtype"
    value {
      type: DT_FLOAT
    }
  }
}
node {
  name: "IsVariableInitialized_2"
  op: "IsVariableInitialized"
  input: "SecondConv2DLayer/kernel"
  attr {
    key: "_class"
    value {
      list {
        s: "loc:@SecondConv2DLayer/kernel"
      }
    }
  }
  attr {
    key: "dtype"
    value {
      type: DT_FLOAT
    }
  }
}
node {
  name: "IsVariableInitialized_3"
  op: "IsVariableInitialized"
  input: "SecondConv2DLayer/bias"
  attr {
    key: "_class"
    value {
      list {
        s: "loc:@SecondConv2DLayer/bias"
      }
    }
  }
  attr {
    key: "dtype"
    value {
      type: DT_FLOAT
    }
  }
}
node {
  name: "IsVariableInitialized_4"
  op: "IsVariableInitialized"
  input: "dense_1/kernel"
  attr {
    key: "_class"
    value {
      list {
        s: "loc:@dense_1/kernel"
      }
    }
  }
  attr {
    key: "dtype"
    value {
      type: DT_FLOAT
    }
  }
}
node {
  name: "IsVariableInitialized_5"
  op: "IsVariableInitialized"
  input: "dense_1/bias"
  attr {
    key: "_class"
    value {
      list {
        s: "loc:@dense_1/bias"
      }
    }
  }
  attr {
    key: "dtype"
    value {
      type: DT_FLOAT
    }
  }
}
node {
  name: "IsVariableInitialized_6"
  op: "IsVariableInitialized"
  input: "Probabilities/kernel"
  attr {
    key: "_class"
    value {
      list {
        s: "loc:@Probabilities/kernel"
      }
    }
  }
  attr {
    key: "dtype"
    value {
      type: DT_FLOAT
    }
  }
}
node {
  name: "IsVariableInitialized_7"
  op: "IsVariableInitialized"
  input: "Probabilities/bias"
  attr {
    key: "_class"
    value {
      list {
        s: "loc:@Probabilities/bias"
      }
    }
  }
  attr {
    key: "dtype"
    value {
      type: DT_FLOAT
    }
  }
}
node {
  name: "init"
  op: "NoOp"
  input: "^FirstConv2DLayer/kernel/Assign"
  input: "^FirstConv2DLayer/bias/Assign"
  input: "^SecondConv2DLayer/kernel/Assign"
  input: "^SecondConv2DLayer/bias/Assign"
  input: "^dense_1/kernel/Assign"
  input: "^dense_1/bias/Assign"
  input: "^Probabilities/kernel/Assign"
  input: "^Probabilities/bias/Assign"
}
node {
  name: "Adam/iterations/initial_value"
  op: "Const"
  attr {
    key: "dtype"
    value {
      type: DT_INT64
    }
  }
  attr {
    key: "value"
    value {
      tensor {
        dtype: DT_INT64
        tensor_shape {
        }
        int64_val: 0
      }
    }
  }
}
node {
  name: "Adam/iterations"
  op: "VariableV2"
  attr {
    key: "container"
    value {
      s: ""
    }
  }
  attr {
    key: "dtype"
    value {
      type: DT_INT64
    }
  }
  attr {
    key: "shape"
    value {
      shape {
      }
    }
  }
  attr {
    key: "shared_name"
    value {
      s: ""
    }
  }
}
node {
  name: "Adam/iterations/Assign"
  op: "Assign"
  input: "Adam/iterations"
  input: "Adam/iterations/initial_value"
  attr {
    key: "T"
    value {
      type: DT_INT64
    }
  }
  attr {
    key: "_class"
    value {
      list {
        s: "loc:@Adam/iterations"
      }
    }
  }
  attr {
    key: "use_locking"
    value {
      b: true
    }
  }
  attr {
    key: "validate_shape"
    value {
      b: true
    }
  }
}
node {
  name: "Adam/iterations/read"
  op: "Identity"
  input: "Adam/iterations"
  attr {
    key: "T"
    value {
      type: DT_INT64
    }
  }
  attr {
    key: "_class"
    value {
      list {
        s: "loc:@Adam/iterations"
      }
    }
  }
}
node {
  name: "Adam/lr/initial_value"
  op: "Const"
  attr {
    key: "dtype"
    value {
      type: DT_FLOAT
    }
  }
  attr {
    key: "value"
    value {
      tensor {
        dtype: DT_FLOAT
        tensor_shape {
        }
        float_val: 0.0010000000474974513
      }
    }
  }
}
node {
  name: "Adam/lr"
  op: "VariableV2"
  attr {
    key: "container"
    value {
      s: ""
    }
  }
  attr {
    key: "dtype"
    value {
      type: DT_FLOAT
    }
  }
  attr {
    key: "shape"
    value {
      shape {
      }
    }
  }
  attr {
    key: "shared_name"
    value {
      s: ""
    }
  }
}
node {
  name: "Adam/lr/Assign"
  op: "Assign"
  input: "Adam/lr"
  input: "Adam/lr/initial_value"
  attr {
    key: "T"
    value {
      type: DT_FLOAT
    }
  }
  attr {
    key: "_class"
    value {
      list {
        s: "loc:@Adam/lr"
      }
    }
  }
  attr {
    key: "use_locking"
    value {
      b: true
    }
  }
  attr {
    key: "validate_shape"
    value {
      b: true
    }
  }
}
node {
  name: "Adam/lr/read"
  op: "Identity"
  input: "Adam/lr"
  attr {
    key: "T"
    value {
      type: DT_FLOAT
    }
  }
  attr {
    key: "_class"
    value {
      list {
        s: "loc:@Adam/lr"
      }
    }
  }
}
node {
  name: "Adam/beta_1/initial_value"
  op: "Const"
  attr {
    key: "dtype"
    value {
      type: DT_FLOAT
    }
  }
  attr {
    key: "value"
    value {
      tensor {
        dtype: DT_FLOAT
        tensor_shape {
        }
        float_val: 0.8999999761581421
      }
    }
  }
}
node {
  name: "Adam/beta_1"
  op: "VariableV2"
  attr {
    key: "container"
    value {
      s: ""
    }
  }
  attr {
    key: "dtype"
    value {
      type: DT_FLOAT
    }
  }
  attr {
    key: "shape"
    value {
      shape {
      }
    }
  }
  attr {
    key: "shared_name"
    value {
      s: ""
    }
  }
}
node {
  name: "Adam/beta_1/Assign"
  op: "Assign"
  input: "Adam/beta_1"
  input: "Adam/beta_1/initial_value"
  attr {
    key: "T"
    value {
      type: DT_FLOAT
    }
  }
  attr {
    key: "_class"
    value {
      list {
        s: "loc:@Adam/beta_1"
      }
    }
  }
  attr {
    key: "use_locking"
    value {
      b: true
    }
  }
  attr {
    key: "validate_shape"
    value {
      b: true
    }
  }
}
node {
  name: "Adam/beta_1/read"
  op: "Identity"
  input: "Adam/beta_1"
  attr {
    key: "T"
    value {
      type: DT_FLOAT
    }
  }
  attr {
    key: "_class"
    value {
      list {
        s: "loc:@Adam/beta_1"
      }
    }
  }
}
node {
  name: "Adam/beta_2/initial_value"
  op: "Const"
  attr {
    key: "dtype"
    value {
      type: DT_FLOAT
    }
  }
  attr {
    key: "value"
    value {
      tensor {
        dtype: DT_FLOAT
        tensor_shape {
        }
        float_val: 0.9990000128746033
      }
    }
  }
}
node {
  name: "Adam/beta_2"
  op: "VariableV2"
  attr {
    key: "container"
    value {
      s: ""
    }
  }
  attr {
    key: "dtype"
    value {
      type: DT_FLOAT
    }
  }
  attr {
    key: "shape"
    value {
      shape {
      }
    }
  }
  attr {
    key: "shared_name"
    value {
      s: ""
    }
  }
}
node {
  name: "Adam/beta_2/Assign"
  op: "Assign"
  input: "Adam/beta_2"
  input: "Adam/beta_2/initial_value"
  attr {
    key: "T"
    value {
      type: DT_FLOAT
    }
  }
  attr {
    key: "_class"
    value {
      list {
        s: "loc:@Adam/beta_2"
      }
    }
  }
  attr {
    key: "use_locking"
    value {
      b: true
    }
  }
  attr {
    key: "validate_shape"
    value {
      b: true
    }
  }
}
node {
  name: "Adam/beta_2/read"
  op: "Identity"
  input: "Adam/beta_2"
  attr {
    key: "T"
    value {
      type: DT_FLOAT
    }
  }
  attr {
    key: "_class"
    value {
      list {
        s: "loc:@Adam/beta_2"
      }
    }
  }
}
node {
  name: "Adam/decay/initial_value"
  op: "Const"
  attr {
    key: "dtype"
    value {
      type: DT_FLOAT
    }
  }
  attr {
    key: "value"
    value {
      tensor {
        dtype: DT_FLOAT
        tensor_shape {
        }
        float_val: 0.0
      }
    }
  }
}
node {
  name: "Adam/decay"
  op: "VariableV2"
  attr {
    key: "container"
    value {
      s: ""
    }
  }
  attr {
    key: "dtype"
    value {
      type: DT_FLOAT
    }
  }
  attr {
    key: "shape"
    value {
      shape {
      }
    }
  }
  attr {
    key: "shared_name"
    value {
      s: ""
    }
  }
}
node {
  name: "Adam/decay/Assign"
  op: "Assign"
  input: "Adam/decay"
  input: "Adam/decay/initial_value"
  attr {
    key: "T"
    value {
      type: DT_FLOAT
    }
  }
  attr {
    key: "_class"
    value {
      list {
        s: "loc:@Adam/decay"
      }
    }
  }
  attr {
    key: "use_locking"
    value {
      b: true
    }
  }
  attr {
    key: "validate_shape"
    value {
      b: true
    }
  }
}
node {
  name: "Adam/decay/read"
  op: "Identity"
  input: "Adam/decay"
  attr {
    key: "T"
    value {
      type: DT_FLOAT
    }
  }
  attr {
    key: "_class"
    value {
      list {
        s: "loc:@Adam/decay"
      }
    }
  }
}
node {
  name: "Probabilities_target"
  op: "Placeholder"
  attr {
    key: "dtype"
    value {
      type: DT_FLOAT
    }
  }
  attr {
    key: "shape"
    value {
      shape {
        dim {
          size: -1
        }
        dim {
          size: -1
        }
      }
    }
  }
}
node {
  name: "Probabilities_sample_weights"
  op: "Placeholder"
  attr {
    key: "dtype"
    value {
      type: DT_FLOAT
    }
  }
  attr {
    key: "shape"
    value {
      shape {
        dim {
          size: -1
        }
      }
    }
  }
}
node {
  name: "loss/Probabilities_loss/Sum/reduction_indices"
  op: "Const"
  attr {
    key: "dtype"
    value {
      type: DT_INT32
    }
  }
  attr {
    key: "value"
    value {
      tensor {
        dtype: DT_INT32
        tensor_shape {
        }
        int_val: 1
      }
    }
  }
}
node {
  name: "loss/Probabilities_loss/Sum"
  op: "Sum"
  input: "Probabilities/Softmax"
  input: "loss/Probabilities_loss/Sum/reduction_indices"
  attr {
    key: "T"
    value {
      type: DT_FLOAT
    }
  }
  attr {
    key: "Tidx"
    value {
      type: DT_INT32
    }
  }
  attr {
    key: "keep_dims"
    value {
      b: true
    }
  }
}
node {
  name: "loss/Probabilities_loss/truediv"
  op: "RealDiv"
  input: "Probabilities/Softmax"
  input: "loss/Probabilities_loss/Sum"
  attr {
    key: "T"
    value {
      type: DT_FLOAT
    }
  }
}
node {
  name: "loss/Probabilities_loss/Const"
  op: "Const"
  attr {
    key: "dtype"
    value {
      type: DT_FLOAT
    }
  }
  attr {
    key: "value"
    value {
      tensor {
        dtype: DT_FLOAT
        tensor_shape {
        }
        float_val: 1.0000000116860974e-07
      }
    }
  }
}
node {
  name: "loss/Probabilities_loss/sub/x"
  op: "Const"
  attr {
    key: "dtype"
    value {
      type: DT_FLOAT
    }
  }
  attr {
    key: "value"
    value {
      tensor {
        dtype: DT_FLOAT
        tensor_shape {
        }
        float_val: 1.0
      }
    }
  }
}
node {
  name: "loss/Probabilities_loss/sub"
  op: "Sub"
  input: "loss/Probabilities_loss/sub/x"
  input: "loss/Probabilities_loss/Const"
  attr {
    key: "T"
    value {
      type: DT_FLOAT
    }
  }
}
node {
  name: "loss/Probabilities_loss/clip_by_value/Minimum"
  op: "Minimum"
  input: "loss/Probabilities_loss/truediv"
  input: "loss/Probabilities_loss/sub"
  attr {
    key: "T"
    value {
      type: DT_FLOAT
    }
  }
}
node {
  name: "loss/Probabilities_loss/clip_by_value"
  op: "Maximum"
  input: "loss/Probabilities_loss/clip_by_value/Minimum"
  input: "loss/Probabilities_loss/Const"
  attr {
    key: "T"
    value {
      type: DT_FLOAT
    }
  }
}
node {
  name: "loss/Probabilities_loss/Log"
  op: "Log"
  input: "loss/Probabilities_loss/clip_by_value"
  attr {
    key: "T"
    value {
      type: DT_FLOAT
    }
  }
}
node {
  name: "loss/Probabilities_loss/mul"
  op: "Mul"
  input: "Probabilities_target"
  input: "loss/Probabilities_loss/Log"
  attr {
    key: "T"
    value {
      type: DT_FLOAT
    }
  }
}
node {
  name: "loss/Probabilities_loss/Sum_1/reduction_indices"
  op: "Const"
  attr {
    key: "dtype"
    value {
      type: DT_INT32
    }
  }
  attr {
    key: "value"
    value {
      tensor {
        dtype: DT_INT32
        tensor_shape {
        }
        int_val: 1
      }
    }
  }
}
node {
  name: "loss/Probabilities_loss/Sum_1"
  op: "Sum"
  input: "loss/Probabilities_loss/mul"
  input: "loss/Probabilities_loss/Sum_1/reduction_indices"
  attr {
    key: "T"
    value {
      type: DT_FLOAT
    }
  }
  attr {
    key: "Tidx"
    value {
      type: DT_INT32
    }
  }
  attr {
    key: "keep_dims"
    value {
      b: false
    }
  }
}
node {
  name: "loss/Probabilities_loss/Neg"
  op: "Neg"
  input: "loss/Probabilities_loss/Sum_1"
  attr {
    key: "T"
    value {
      type: DT_FLOAT
    }
  }
}
node {
  name: "loss/Probabilities_loss/Mean/reduction_indices"
  op: "Const"
  attr {
    key: "dtype"
    value {
      type: DT_INT32
    }
  }
  attr {
    key: "value"
    value {
      tensor {
        dtype: DT_INT32
        tensor_shape {
          dim {
          }
        }
      }
    }
  }
}
node {
  name: "loss/Probabilities_loss/Mean"
  op: "Mean"
  input: "loss/Probabilities_loss/Neg"
  input: "loss/Probabilities_loss/Mean/reduction_indices"
  attr {
    key: "T"
    value {
      type: DT_FLOAT
    }
  }
  attr {
    key: "Tidx"
    value {
      type: DT_INT32
    }
  }
  attr {
    key: "keep_dims"
    value {
      b: false
    }
  }
}
node {
  name: "loss/Probabilities_loss/mul_1"
  op: "Mul"
  input: "loss/Probabilities_loss/Mean"
  input: "Probabilities_sample_weights"
  attr {
    key: "T"
    value {
      type: DT_FLOAT
    }
  }
}
node {
  name: "loss/Probabilities_loss/NotEqual/y"
  op: "Const"
  attr {
    key: "dtype"
    value {
      type: DT_FLOAT
    }
  }
  attr {
    key: "value"
    value {
      tensor {
        dtype: DT_FLOAT
        tensor_shape {
        }
        float_val: 0.0
      }
    }
  }
}
node {
  name: "loss/Probabilities_loss/NotEqual"
  op: "NotEqual"
  input: "Probabilities_sample_weights"
  input: "loss/Probabilities_loss/NotEqual/y"
  attr {
    key: "T"
    value {
      type: DT_FLOAT
    }
  }
}
node {
  name: "loss/Probabilities_loss/Cast"
  op: "Cast"
  input: "loss/Probabilities_loss/NotEqual"
  attr {
    key: "DstT"
    value {
      type: DT_FLOAT
    }
  }
  attr {
    key: "SrcT"
    value {
      type: DT_BOOL
    }
  }
}
node {
  name: "loss/Probabilities_loss/Const_1"
  op: "Const"
  attr {
    key: "dtype"
    value {
      type: DT_INT32
    }
  }
  attr {
    key: "value"
    value {
      tensor {
        dtype: DT_INT32
        tensor_shape {
          dim {
            size: 1
          }
        }
        int_val: 0
      }
    }
  }
}
node {
  name: "loss/Probabilities_loss/Mean_1"
  op: "Mean"
  input: "loss/Probabilities_loss/Cast"
  input: "loss/Probabilities_loss/Const_1"
  attr {
    key: "T"
    value {
      type: DT_FLOAT
    }
  }
  attr {
    key: "Tidx"
    value {
      type: DT_INT32
    }
  }
  attr {
    key: "keep_dims"
    value {
      b: false
    }
  }
}
node {
  name: "loss/Probabilities_loss/truediv_1"
  op: "RealDiv"
  input: "loss/Probabilities_loss/mul_1"
  input: "loss/Probabilities_loss/Mean_1"
  attr {
    key: "T"
    value {
      type: DT_FLOAT
    }
  }
}
node {
  name: "loss/Probabilities_loss/Const_2"
  op: "Const"
  attr {
    key: "dtype"
    value {
      type: DT_INT32
    }
  }
  attr {
    key: "value"
    value {
      tensor {
        dtype: DT_INT32
        tensor_shape {
          dim {
            size: 1
          }
        }
        int_val: 0
      }
    }
  }
}
node {
  name: "loss/Probabilities_loss/Mean_2"
  op: "Mean"
  input: "loss/Probabilities_loss/truediv_1"
  input: "loss/Probabilities_loss/Const_2"
  attr {
    key: "T"
    value {
      type: DT_FLOAT
    }
  }
  attr {
    key: "Tidx"
    value {
      type: DT_INT32
    }
  }
  attr {
    key: "keep_dims"
    value {
      b: false
    }
  }
}
node {
  name: "loss/mul/x"
  op: "Const"
  attr {
    key: "dtype"
    value {
      type: DT_FLOAT
    }
  }
  attr {
    key: "value"
    value {
      tensor {
        dtype: DT_FLOAT
        tensor_shape {
        }
        float_val: 1.0
      }
    }
  }
}
node {
  name: "loss/mul"
  op: "Mul"
  input: "loss/mul/x"
  input: "loss/Probabilities_loss/Mean_2"
  attr {
    key: "T"
    value {
      type: DT_FLOAT
    }
  }
}
node {
  name: "metrics/acc/ArgMax/dimension"
  op: "Const"
  attr {
    key: "dtype"
    value {
      type: DT_INT32
    }
  }
  attr {
    key: "value"
    value {
      tensor {
        dtype: DT_INT32
        tensor_shape {
        }
        int_val: -1
      }
    }
  }
}
node {
  name: "metrics/acc/ArgMax"
  op: "ArgMax"
  input: "Probabilities_target"
  input: "metrics/acc/ArgMax/dimension"
  attr {
    key: "T"
    value {
      type: DT_FLOAT
    }
  }
  attr {
    key: "Tidx"
    value {
      type: DT_INT32
    }
  }
  attr {
    key: "output_type"
    value {
      type: DT_INT64
    }
  }
}
node {
  name: "metrics/acc/ArgMax_1/dimension"
  op: "Const"
  attr {
    key: "dtype"
    value {
      type: DT_INT32
    }
  }
  attr {
    key: "value"
    value {
      tensor {
        dtype: DT_INT32
        tensor_shape {
        }
        int_val: -1
      }
    }
  }
}
node {
  name: "metrics/acc/ArgMax_1"
  op: "ArgMax"
  input: "Probabilities/Softmax"
  input: "metrics/acc/ArgMax_1/dimension"
  attr {
    key: "T"
    value {
      type: DT_FLOAT
    }
  }
  attr {
    key: "Tidx"
    value {
      type: DT_INT32
    }
  }
  attr {
    key: "output_type"
    value {
      type: DT_INT64
    }
  }
}
node {
  name: "metrics/acc/Equal"
  op: "Equal"
  input: "metrics/acc/ArgMax"
  input: "metrics/acc/ArgMax_1"
  attr {
    key: "T"
    value {
      type: DT_INT64
    }
  }
}
node {
  name: "metrics/acc/Cast"
  op: "Cast"
  input: "metrics/acc/Equal"
  attr {
    key: "DstT"
    value {
      type: DT_FLOAT
    }
  }
  attr {
    key: "SrcT"
    value {
      type: DT_BOOL
    }
  }
}
node {
  name: "metrics/acc/Const"
  op: "Const"
  attr {
    key: "dtype"
    value {
      type: DT_INT32
    }
  }
  attr {
    key: "value"
    value {
      tensor {
        dtype: DT_INT32
        tensor_shape {
          dim {
            size: 1
          }
        }
        int_val: 0
      }
    }
  }
}
node {
  name: "metrics/acc/Mean"
  op: "Mean"
  input: "metrics/acc/Cast"
  input: "metrics/acc/Const"
  attr {
    key: "T"
    value {
      type: DT_FLOAT
    }
  }
  attr {
    key: "Tidx"
    value {
      type: DT_INT32
    }
  }
  attr {
    key: "keep_dims"
    value {
      b: false
    }
  }
}
node {
  name: "training/Adam/gradients/Shape"
  op: "Const"
  attr {
    key: "_class"
    value {
      list {
        s: "loc:@loss/mul"
      }
    }
  }
  attr {
    key: "dtype"
    value {
      type: DT_INT32
    }
  }
  attr {
    key: "value"
    value {
      tensor {
        dtype: DT_INT32
        tensor_shape {
          dim {
          }
        }
      }
    }
  }
}
node {
  name: "training/Adam/gradients/grad_ys_0"
  op: "Const"
  attr {
    key: "_class"
    value {
      list {
        s: "loc:@loss/mul"
      }
    }
  }
  attr {
    key: "dtype"
    value {
      type: DT_FLOAT
    }
  }
  attr {
    key: "value"
    value {
      tensor {
        dtype: DT_FLOAT
        tensor_shape {
        }
        float_val: 1.0
      }
    }
  }
}
node {
  name: "training/Adam/gradients/Fill"
  op: "Fill"
  input: "training/Adam/gradients/Shape"
  input: "training/Adam/gradients/grad_ys_0"
  attr {
    key: "T"
    value {
      type: DT_FLOAT
    }
  }
  attr {
    key: "_class"
    value {
      list {
        s: "loc:@loss/mul"
      }
    }
  }
  attr {
    key: "index_type"
    value {
      type: DT_INT32
    }
  }
}
node {
  name: "training/Adam/gradients/loss/mul_grad/Mul"
  op: "Mul"
  input: "training/Adam/gradients/Fill"
  input: "loss/Probabilities_loss/Mean_2"
  attr {
    key: "T"
    value {
      type: DT_FLOAT
    }
  }
  attr {
    key: "_class"
    value {
      list {
        s: "loc:@loss/mul"
      }
    }
  }
}
node {
  name: "training/Adam/gradients/loss/mul_grad/Mul_1"
  op: "Mul"
  input: "training/Adam/gradients/Fill"
  input: "loss/mul/x"
  attr {
    key: "T"
    value {
      type: DT_FLOAT
    }
  }
  attr {
    key: "_class"
    value {
      list {
        s: "loc:@loss/mul"
      }
    }
  }
}
node {
  name: "training/Adam/gradients/loss/Probabilities_loss/Mean_2_grad/Reshape/shape"
  op: "Const"
  attr {
    key: "_class"
    value {
      list {
        s: "loc:@loss/Probabilities_loss/Mean_2"
      }
    }
  }
  attr {
    key: "dtype"
    value {
      type: DT_INT32
    }
  }
  attr {
    key: "value"
    value {
      tensor {
        dtype: DT_INT32
        tensor_shape {
          dim {
            size: 1
          }
        }
        int_val: 1
      }
    }
  }
}
node {
  name: "training/Adam/gradients/loss/Probabilities_loss/Mean_2_grad/Reshape"
  op: "Reshape"
  input: "training/Adam/gradients/loss/mul_grad/Mul_1"
  input: "training/Adam/gradients/loss/Probabilities_loss/Mean_2_grad/Reshape/shape"
  attr {
    key: "T"
    value {
      type: DT_FLOAT
    }
  }
  attr {
    key: "Tshape"
    value {
      type: DT_INT32
    }
  }
  attr {
    key: "_class"
    value {
      list {
        s: "loc:@loss/Probabilities_loss/Mean_2"
      }
    }
  }
}
node {
  name: "training/Adam/gradients/loss/Probabilities_loss/Mean_2_grad/Shape"
  op: "Shape"
  input: "loss/Probabilities_loss/truediv_1"
  attr {
    key: "T"
    value {
      type: DT_FLOAT
    }
  }
  attr {
    key: "_class"
    value {
      list {
        s: "loc:@loss/Probabilities_loss/Mean_2"
      }
    }
  }
  attr {
    key: "out_type"
    value {
      type: DT_INT32
    }
  }
}
node {
  name: "training/Adam/gradients/loss/Probabilities_loss/Mean_2_grad/Tile"
  op: "Tile"
  input: "training/Adam/gradients/loss/Probabilities_loss/Mean_2_grad/Reshape"
  input: "training/Adam/gradients/loss/Probabilities_loss/Mean_2_grad/Shape"
  attr {
    key: "T"
    value {
      type: DT_FLOAT
    }
  }
  attr {
    key: "Tmultiples"
    value {
      type: DT_INT32
    }
  }
  attr {
    key: "_class"
    value {
      list {
        s: "loc:@loss/Probabilities_loss/Mean_2"
      }
    }
  }
}
node {
  name: "training/Adam/gradients/loss/Probabilities_loss/Mean_2_grad/Shape_1"
  op: "Shape"
  input: "loss/Probabilities_loss/truediv_1"
  attr {
    key: "T"
    value {
      type: DT_FLOAT
    }
  }
  attr {
    key: "_class"
    value {
      list {
        s: "loc:@loss/Probabilities_loss/Mean_2"
      }
    }
  }
  attr {
    key: "out_type"
    value {
      type: DT_INT32
    }
  }
}
node {
  name: "training/Adam/gradients/loss/Probabilities_loss/Mean_2_grad/Shape_2"
  op: "Const"
  attr {
    key: "_class"
    value {
      list {
        s: "loc:@loss/Probabilities_loss/Mean_2"
      }
    }
  }
  attr {
    key: "dtype"
    value {
      type: DT_INT32
    }
  }
  attr {
    key: "value"
    value {
      tensor {
        dtype: DT_INT32
        tensor_shape {
          dim {
          }
        }
      }
    }
  }
}
node {
  name: "training/Adam/gradients/loss/Probabilities_loss/Mean_2_grad/Const"
  op: "Const"
  attr {
    key: "_class"
    value {
      list {
        s: "loc:@loss/Probabilities_loss/Mean_2"
      }
    }
  }
  attr {
    key: "dtype"
    value {
      type: DT_INT32
    }
  }
  attr {
    key: "value"
    value {
      tensor {
        dtype: DT_INT32
        tensor_shape {
          dim {
            size: 1
          }
        }
        int_val: 0
      }
    }
  }
}
node {
  name: "training/Adam/gradients/loss/Probabilities_loss/Mean_2_grad/Prod"
  op: "Prod"
  input: "training/Adam/gradients/loss/Probabilities_loss/Mean_2_grad/Shape_1"
  input: "training/Adam/gradients/loss/Probabilities_loss/Mean_2_grad/Const"
  attr {
    key: "T"
    value {
      type: DT_INT32
    }
  }
  attr {
    key: "Tidx"
    value {
      type: DT_INT32
    }
  }
  attr {
    key: "_class"
    value {
      list {
        s: "loc:@loss/Probabilities_loss/Mean_2"
      }
    }
  }
  attr {
    key: "keep_dims"
    value {
      b: false
    }
  }
}
node {
  name: "training/Adam/gradients/loss/Probabilities_loss/Mean_2_grad/Const_1"
  op: "Const"
  attr {
    key: "_class"
    value {
      list {
        s: "loc:@loss/Probabilities_loss/Mean_2"
      }
    }
  }
  attr {
    key: "dtype"
    value {
      type: DT_INT32
    }
  }
  attr {
    key: "value"
    value {
      tensor {
        dtype: DT_INT32
        tensor_shape {
          dim {
            size: 1
          }
        }
        int_val: 0
      }
    }
  }
}
node {
  name: "training/Adam/gradients/loss/Probabilities_loss/Mean_2_grad/Prod_1"
  op: "Prod"
  input: "training/Adam/gradients/loss/Probabilities_loss/Mean_2_grad/Shape_2"
  input: "training/Adam/gradients/loss/Probabilities_loss/Mean_2_grad/Const_1"
  attr {
    key: "T"
    value {
      type: DT_INT32
    }
  }
  attr {
    key: "Tidx"
    value {
      type: DT_INT32
    }
  }
  attr {
    key: "_class"
    value {
      list {
        s: "loc:@loss/Probabilities_loss/Mean_2"
      }
    }
  }
  attr {
    key: "keep_dims"
    value {
      b: false
    }
  }
}
node {
  name: "training/Adam/gradients/loss/Probabilities_loss/Mean_2_grad/Maximum/y"
  op: "Const"
  attr {
    key: "_class"
    value {
      list {
        s: "loc:@loss/Probabilities_loss/Mean_2"
      }
    }
  }
  attr {
    key: "dtype"
    value {
      type: DT_INT32
    }
  }
  attr {
    key: "value"
    value {
      tensor {
        dtype: DT_INT32
        tensor_shape {
        }
        int_val: 1
      }
    }
  }
}
node {
  name: "training/Adam/gradients/loss/Probabilities_loss/Mean_2_grad/Maximum"
  op: "Maximum"
  input: "training/Adam/gradients/loss/Probabilities_loss/Mean_2_grad/Prod_1"
  input: "training/Adam/gradients/loss/Probabilities_loss/Mean_2_grad/Maximum/y"
  attr {
    key: "T"
    value {
      type: DT_INT32
    }
  }
  attr {
    key: "_class"
    value {
      list {
        s: "loc:@loss/Probabilities_loss/Mean_2"
      }
    }
  }
}
node {
  name: "training/Adam/gradients/loss/Probabilities_loss/Mean_2_grad/floordiv"
  op: "FloorDiv"
  input: "training/Adam/gradients/loss/Probabilities_loss/Mean_2_grad/Prod"
  input: "training/Adam/gradients/loss/Probabilities_loss/Mean_2_grad/Maximum"
  attr {
    key: "T"
    value {
      type: DT_INT32
    }
  }
  attr {
    key: "_class"
    value {
      list {
        s: "loc:@loss/Probabilities_loss/Mean_2"
      }
    }
  }
}
node {
  name: "training/Adam/gradients/loss/Probabilities_loss/Mean_2_grad/Cast"
  op: "Cast"
  input: "training/Adam/gradients/loss/Probabilities_loss/Mean_2_grad/floordiv"
  attr {
    key: "DstT"
    value {
      type: DT_FLOAT
    }
  }
  attr {
    key: "SrcT"
    value {
      type: DT_INT32
    }
  }
  attr {
    key: "_class"
    value {
      list {
        s: "loc:@loss/Probabilities_loss/Mean_2"
      }
    }
  }
}
node {
  name: "training/Adam/gradients/loss/Probabilities_loss/Mean_2_grad/truediv"
  op: "RealDiv"
  input: "training/Adam/gradients/loss/Probabilities_loss/Mean_2_grad/Tile"
  input: "training/Adam/gradients/loss/Probabilities_loss/Mean_2_grad/Cast"
  attr {
    key: "T"
    value {
      type: DT_FLOAT
    }
  }
  attr {
    key: "_class"
    value {
      list {
        s: "loc:@loss/Probabilities_loss/Mean_2"
      }
    }
  }
}
node {
  name: "training/Adam/gradients/loss/Probabilities_loss/truediv_1_grad/Shape"
  op: "Shape"
  input: "loss/Probabilities_loss/mul_1"
  attr {
    key: "T"
    value {
      type: DT_FLOAT
    }
  }
  attr {
    key: "_class"
    value {
      list {
        s: "loc:@loss/Probabilities_loss/truediv_1"
      }
    }
  }
  attr {
    key: "out_type"
    value {
      type: DT_INT32
    }
  }
}
node {
  name: "training/Adam/gradients/loss/Probabilities_loss/truediv_1_grad/Shape_1"
  op: "Const"
  attr {
    key: "_class"
    value {
      list {
        s: "loc:@loss/Probabilities_loss/truediv_1"
      }
    }
  }
  attr {
    key: "dtype"
    value {
      type: DT_INT32
    }
  }
  attr {
    key: "value"
    value {
      tensor {
        dtype: DT_INT32
        tensor_shape {
          dim {
          }
        }
      }
    }
  }
}
node {
  name: "training/Adam/gradients/loss/Probabilities_loss/truediv_1_grad/BroadcastGradientArgs"
  op: "BroadcastGradientArgs"
  input: "training/Adam/gradients/loss/Probabilities_loss/truediv_1_grad/Shape"
  input: "training/Adam/gradients/loss/Probabilities_loss/truediv_1_grad/Shape_1"
  attr {
    key: "T"
    value {
      type: DT_INT32
    }
  }
  attr {
    key: "_class"
    value {
      list {
        s: "loc:@loss/Probabilities_loss/truediv_1"
      }
    }
  }
}
node {
  name: "training/Adam/gradients/loss/Probabilities_loss/truediv_1_grad/RealDiv"
  op: "RealDiv"
  input: "training/Adam/gradients/loss/Probabilities_loss/Mean_2_grad/truediv"
  input: "loss/Probabilities_loss/Mean_1"
  attr {
    key: "T"
    value {
      type: DT_FLOAT
    }
  }
  attr {
    key: "_class"
    value {
      list {
        s: "loc:@loss/Probabilities_loss/truediv_1"
      }
    }
  }
}
node {
  name: "training/Adam/gradients/loss/Probabilities_loss/truediv_1_grad/Sum"
  op: "Sum"
  input: "training/Adam/gradients/loss/Probabilities_loss/truediv_1_grad/RealDiv"
  input: "training/Adam/gradients/loss/Probabilities_loss/truediv_1_grad/BroadcastGradientArgs"
  attr {
    key: "T"
    value {
      type: DT_FLOAT
    }
  }
  attr {
    key: "Tidx"
    value {
      type: DT_INT32
    }
  }
  attr {
    key: "_class"
    value {
      list {
        s: "loc:@loss/Probabilities_loss/truediv_1"
      }
    }
  }
  attr {
    key: "keep_dims"
    value {
      b: false
    }
  }
}
node {
  name: "training/Adam/gradients/loss/Probabilities_loss/truediv_1_grad/Reshape"
  op: "Reshape"
  input: "training/Adam/gradients/loss/Probabilities_loss/truediv_1_grad/Sum"
  input: "training/Adam/gradients/loss/Probabilities_loss/truediv_1_grad/Shape"
  attr {
    key: "T"
    value {
      type: DT_FLOAT
    }
  }
  attr {
    key: "Tshape"
    value {
      type: DT_INT32
    }
  }
  attr {
    key: "_class"
    value {
      list {
        s: "loc:@loss/Probabilities_loss/truediv_1"
      }
    }
  }
}
node {
  name: "training/Adam/gradients/loss/Probabilities_loss/truediv_1_grad/Neg"
  op: "Neg"
  input: "loss/Probabilities_loss/mul_1"
  attr {
    key: "T"
    value {
      type: DT_FLOAT
    }
  }
  attr {
    key: "_class"
    value {
      list {
        s: "loc:@loss/Probabilities_loss/truediv_1"
      }
    }
  }
}
node {
  name: "training/Adam/gradients/loss/Probabilities_loss/truediv_1_grad/RealDiv_1"
  op: "RealDiv"
  input: "training/Adam/gradients/loss/Probabilities_loss/truediv_1_grad/Neg"
  input: "loss/Probabilities_loss/Mean_1"
  attr {
    key: "T"
    value {
      type: DT_FLOAT
    }
  }
  attr {
    key: "_class"
    value {
      list {
        s: "loc:@loss/Probabilities_loss/truediv_1"
      }
    }
  }
}
node {
  name: "training/Adam/gradients/loss/Probabilities_loss/truediv_1_grad/RealDiv_2"
  op: "RealDiv"
  input: "training/Adam/gradients/loss/Probabilities_loss/truediv_1_grad/RealDiv_1"
  input: "loss/Probabilities_loss/Mean_1"
  attr {
    key: "T"
    value {
      type: DT_FLOAT
    }
  }
  attr {
    key: "_class"
    value {
      list {
        s: "loc:@loss/Probabilities_loss/truediv_1"
      }
    }
  }
}
node {
  name: "training/Adam/gradients/loss/Probabilities_loss/truediv_1_grad/mul"
  op: "Mul"
  input: "training/Adam/gradients/loss/Probabilities_loss/Mean_2_grad/truediv"
  input: "training/Adam/gradients/loss/Probabilities_loss/truediv_1_grad/RealDiv_2"
  attr {
    key: "T"
    value {
      type: DT_FLOAT
    }
  }
  attr {
    key: "_class"
    value {
      list {
        s: "loc:@loss/Probabilities_loss/truediv_1"
      }
    }
  }
}
node {
  name: "training/Adam/gradients/loss/Probabilities_loss/truediv_1_grad/Sum_1"
  op: "Sum"
  input: "training/Adam/gradients/loss/Probabilities_loss/truediv_1_grad/mul"
  input: "training/Adam/gradients/loss/Probabilities_loss/truediv_1_grad/BroadcastGradientArgs:1"
  attr {
    key: "T"
    value {
      type: DT_FLOAT
    }
  }
  attr {
    key: "Tidx"
    value {
      type: DT_INT32
    }
  }
  attr {
    key: "_class"
    value {
      list {
        s: "loc:@loss/Probabilities_loss/truediv_1"
      }
    }
  }
  attr {
    key: "keep_dims"
    value {
      b: false
    }
  }
}
node {
  name: "training/Adam/gradients/loss/Probabilities_loss/truediv_1_grad/Reshape_1"
  op: "Reshape"
  input: "training/Adam/gradients/loss/Probabilities_loss/truediv_1_grad/Sum_1"
  input: "training/Adam/gradients/loss/Probabilities_loss/truediv_1_grad/Shape_1"
  attr {
    key: "T"
    value {
      type: DT_FLOAT
    }
  }
  attr {
    key: "Tshape"
    value {
      type: DT_INT32
    }
  }
  attr {
    key: "_class"
    value {
      list {
        s: "loc:@loss/Probabilities_loss/truediv_1"
      }
    }
  }
}
node {
  name: "training/Adam/gradients/loss/Probabilities_loss/mul_1_grad/Shape"
  op: "Shape"
  input: "loss/Probabilities_loss/Mean"
  attr {
    key: "T"
    value {
      type: DT_FLOAT
    }
  }
  attr {
    key: "_class"
    value {
      list {
        s: "loc:@loss/Probabilities_loss/mul_1"
      }
    }
  }
  attr {
    key: "out_type"
    value {
      type: DT_INT32
    }
  }
}
node {
  name: "training/Adam/gradients/loss/Probabilities_loss/mul_1_grad/Shape_1"
  op: "Shape"
  input: "Probabilities_sample_weights"
  attr {
    key: "T"
    value {
      type: DT_FLOAT
    }
  }
  attr {
    key: "_class"
    value {
      list {
        s: "loc:@loss/Probabilities_loss/mul_1"
      }
    }
  }
  attr {
    key: "out_type"
    value {
      type: DT_INT32
    }
  }
}
node {
  name: "training/Adam/gradients/loss/Probabilities_loss/mul_1_grad/BroadcastGradientArgs"
  op: "BroadcastGradientArgs"
  input: "training/Adam/gradients/loss/Probabilities_loss/mul_1_grad/Shape"
  input: "training/Adam/gradients/loss/Probabilities_loss/mul_1_grad/Shape_1"
  attr {
    key: "T"
    value {
      type: DT_INT32
    }
  }
  attr {
    key: "_class"
    value {
      list {
        s: "loc:@loss/Probabilities_loss/mul_1"
      }
    }
  }
}
node {
  name: "training/Adam/gradients/loss/Probabilities_loss/mul_1_grad/mul"
  op: "Mul"
  input: "training/Adam/gradients/loss/Probabilities_loss/truediv_1_grad/Reshape"
  input: "Probabilities_sample_weights"
  attr {
    key: "T"
    value {
      type: DT_FLOAT
    }
  }
  attr {
    key: "_class"
    value {
      list {
        s: "loc:@loss/Probabilities_loss/mul_1"
      }
    }
  }
}
node {
  name: "training/Adam/gradients/loss/Probabilities_loss/mul_1_grad/Sum"
  op: "Sum"
  input: "training/Adam/gradients/loss/Probabilities_loss/mul_1_grad/mul"
  input: "training/Adam/gradients/loss/Probabilities_loss/mul_1_grad/BroadcastGradientArgs"
  attr {
    key: "T"
    value {
      type: DT_FLOAT
    }
  }
  attr {
    key: "Tidx"
    value {
      type: DT_INT32
    }
  }
  attr {
    key: "_class"
    value {
      list {
        s: "loc:@loss/Probabilities_loss/mul_1"
      }
    }
  }
  attr {
    key: "keep_dims"
    value {
      b: false
    }
  }
}
node {
  name: "training/Adam/gradients/loss/Probabilities_loss/mul_1_grad/Reshape"
  op: "Reshape"
  input: "training/Adam/gradients/loss/Probabilities_loss/mul_1_grad/Sum"
  input: "training/Adam/gradients/loss/Probabilities_loss/mul_1_grad/Shape"
  attr {
    key: "T"
    value {
      type: DT_FLOAT
    }
  }
  attr {
    key: "Tshape"
    value {
      type: DT_INT32
    }
  }
  attr {
    key: "_class"
    value {
      list {
        s: "loc:@loss/Probabilities_loss/mul_1"
      }
    }
  }
}
node {
  name: "training/Adam/gradients/loss/Probabilities_loss/mul_1_grad/mul_1"
  op: "Mul"
  input: "loss/Probabilities_loss/Mean"
  input: "training/Adam/gradients/loss/Probabilities_loss/truediv_1_grad/Reshape"
  attr {
    key: "T"
    value {
      type: DT_FLOAT
    }
  }
  attr {
    key: "_class"
    value {
      list {
        s: "loc:@loss/Probabilities_loss/mul_1"
      }
    }
  }
}
node {
  name: "training/Adam/gradients/loss/Probabilities_loss/mul_1_grad/Sum_1"
  op: "Sum"
  input: "training/Adam/gradients/loss/Probabilities_loss/mul_1_grad/mul_1"
  input: "training/Adam/gradients/loss/Probabilities_loss/mul_1_grad/BroadcastGradientArgs:1"
  attr {
    key: "T"
    value {
      type: DT_FLOAT
    }
  }
  attr {
    key: "Tidx"
    value {
      type: DT_INT32
    }
  }
  attr {
    key: "_class"
    value {
      list {
        s: "loc:@loss/Probabilities_loss/mul_1"
      }
    }
  }
  attr {
    key: "keep_dims"
    value {
      b: false
    }
  }
}
node {
  name: "training/Adam/gradients/loss/Probabilities_loss/mul_1_grad/Reshape_1"
  op: "Reshape"
  input: "training/Adam/gradients/loss/Probabilities_loss/mul_1_grad/Sum_1"
  input: "training/Adam/gradients/loss/Probabilities_loss/mul_1_grad/Shape_1"
  attr {
    key: "T"
    value {
      type: DT_FLOAT
    }
  }
  attr {
    key: "Tshape"
    value {
      type: DT_INT32
    }
  }
  attr {
    key: "_class"
    value {
      list {
        s: "loc:@loss/Probabilities_loss/mul_1"
      }
    }
  }
}
node {
  name: "training/Adam/gradients/loss/Probabilities_loss/Mean_grad/Shape"
  op: "Shape"
  input: "loss/Probabilities_loss/Neg"
  attr {
    key: "T"
    value {
      type: DT_FLOAT
    }
  }
  attr {
    key: "_class"
    value {
      list {
        s: "loc:@loss/Probabilities_loss/Mean"
      }
    }
  }
  attr {
    key: "out_type"
    value {
      type: DT_INT32
    }
  }
}
node {
  name: "training/Adam/gradients/loss/Probabilities_loss/Mean_grad/Size"
  op: "Const"
  attr {
    key: "_class"
    value {
      list {
        s: "loc:@loss/Probabilities_loss/Mean"
      }
    }
  }
  attr {
    key: "dtype"
    value {
      type: DT_INT32
    }
  }
  attr {
    key: "value"
    value {
      tensor {
        dtype: DT_INT32
        tensor_shape {
        }
        int_val: 1
      }
    }
  }
}
node {
  name: "training/Adam/gradients/loss/Probabilities_loss/Mean_grad/add"
  op: "Add"
  input: "loss/Probabilities_loss/Mean/reduction_indices"
  input: "training/Adam/gradients/loss/Probabilities_loss/Mean_grad/Size"
  attr {
    key: "T"
    value {
      type: DT_INT32
    }
  }
  attr {
    key: "_class"
    value {
      list {
        s: "loc:@loss/Probabilities_loss/Mean"
      }
    }
  }
}
node {
  name: "training/Adam/gradients/loss/Probabilities_loss/Mean_grad/mod"
  op: "FloorMod"
  input: "training/Adam/gradients/loss/Probabilities_loss/Mean_grad/add"
  input: "training/Adam/gradients/loss/Probabilities_loss/Mean_grad/Size"
  attr {
    key: "T"
    value {
      type: DT_INT32
    }
  }
  attr {
    key: "_class"
    value {
      list {
        s: "loc:@loss/Probabilities_loss/Mean"
      }
    }
  }
}
node {
  name: "training/Adam/gradients/loss/Probabilities_loss/Mean_grad/Shape_1"
  op: "Const"
  attr {
    key: "_class"
    value {
      list {
        s: "loc:@loss/Probabilities_loss/Mean"
      }
    }
  }
  attr {
    key: "dtype"
    value {
      type: DT_INT32
    }
  }
  attr {
    key: "value"
    value {
      tensor {
        dtype: DT_INT32
        tensor_shape {
          dim {
            size: 1
          }
        }
        int_val: 0
      }
    }
  }
}
node {
  name: "training/Adam/gradients/loss/Probabilities_loss/Mean_grad/range/start"
  op: "Const"
  attr {
    key: "_class"
    value {
      list {
        s: "loc:@loss/Probabilities_loss/Mean"
      }
    }
  }
  attr {
    key: "dtype"
    value {
      type: DT_INT32
    }
  }
  attr {
    key: "value"
    value {
      tensor {
        dtype: DT_INT32
        tensor_shape {
        }
        int_val: 0
      }
    }
  }
}
node {
  name: "training/Adam/gradients/loss/Probabilities_loss/Mean_grad/range/delta"
  op: "Const"
  attr {
    key: "_class"
    value {
      list {
        s: "loc:@loss/Probabilities_loss/Mean"
      }
    }
  }
  attr {
    key: "dtype"
    value {
      type: DT_INT32
    }
  }
  attr {
    key: "value"
    value {
      tensor {
        dtype: DT_INT32
        tensor_shape {
        }
        int_val: 1
      }
    }
  }
}
node {
  name: "training/Adam/gradients/loss/Probabilities_loss/Mean_grad/range"
  op: "Range"
  input: "training/Adam/gradients/loss/Probabilities_loss/Mean_grad/range/start"
  input: "training/Adam/gradients/loss/Probabilities_loss/Mean_grad/Size"
  input: "training/Adam/gradients/loss/Probabilities_loss/Mean_grad/range/delta"
  attr {
    key: "Tidx"
    value {
      type: DT_INT32
    }
  }
  attr {
    key: "_class"
    value {
      list {
        s: "loc:@loss/Probabilities_loss/Mean"
      }
    }
  }
}
node {
  name: "training/Adam/gradients/loss/Probabilities_loss/Mean_grad/Fill/value"
  op: "Const"
  attr {
    key: "_class"
    value {
      list {
        s: "loc:@loss/Probabilities_loss/Mean"
      }
    }
  }
  attr {
    key: "dtype"
    value {
      type: DT_INT32
    }
  }
  attr {
    key: "value"
    value {
      tensor {
        dtype: DT_INT32
        tensor_shape {
        }
        int_val: 1
      }
    }
  }
}
node {
  name: "training/Adam/gradients/loss/Probabilities_loss/Mean_grad/Fill"
  op: "Fill"
  input: "training/Adam/gradients/loss/Probabilities_loss/Mean_grad/Shape_1"
  input: "training/Adam/gradients/loss/Probabilities_loss/Mean_grad/Fill/value"
  attr {
    key: "T"
    value {
      type: DT_INT32
    }
  }
  attr {
    key: "_class"
    value {
      list {
        s: "loc:@loss/Probabilities_loss/Mean"
      }
    }
  }
  attr {
    key: "index_type"
    value {
      type: DT_INT32
    }
  }
}
node {
  name: "training/Adam/gradients/loss/Probabilities_loss/Mean_grad/DynamicStitch"
  op: "DynamicStitch"
  input: "training/Adam/gradients/loss/Probabilities_loss/Mean_grad/range"
  input: "training/Adam/gradients/loss/Probabilities_loss/Mean_grad/mod"
  input: "training/Adam/gradients/loss/Probabilities_loss/Mean_grad/Shape"
  input: "training/Adam/gradients/loss/Probabilities_loss/Mean_grad/Fill"
  attr {
    key: "N"
    value {
      i: 2
    }
  }
  attr {
    key: "T"
    value {
      type: DT_INT32
    }
  }
  attr {
    key: "_class"
    value {
      list {
        s: "loc:@loss/Probabilities_loss/Mean"
      }
    }
  }
}
node {
  name: "training/Adam/gradients/loss/Probabilities_loss/Mean_grad/Maximum/y"
  op: "Const"
  attr {
    key: "_class"
    value {
      list {
        s: "loc:@loss/Probabilities_loss/Mean"
      }
    }
  }
  attr {
    key: "dtype"
    value {
      type: DT_INT32
    }
  }
  attr {
    key: "value"
    value {
      tensor {
        dtype: DT_INT32
        tensor_shape {
        }
        int_val: 1
      }
    }
  }
}
node {
  name: "training/Adam/gradients/loss/Probabilities_loss/Mean_grad/Maximum"
  op: "Maximum"
  input: "training/Adam/gradients/loss/Probabilities_loss/Mean_grad/DynamicStitch"
  input: "training/Adam/gradients/loss/Probabilities_loss/Mean_grad/Maximum/y"
  attr {
    key: "T"
    value {
      type: DT_INT32
    }
  }
  attr {
    key: "_class"
    value {
      list {
        s: "loc:@loss/Probabilities_loss/Mean"
      }
    }
  }
}
node {
  name: "training/Adam/gradients/loss/Probabilities_loss/Mean_grad/floordiv"
  op: "FloorDiv"
  input: "training/Adam/gradients/loss/Probabilities_loss/Mean_grad/Shape"
  input: "training/Adam/gradients/loss/Probabilities_loss/Mean_grad/Maximum"
  attr {
    key: "T"
    value {
      type: DT_INT32
    }
  }
  attr {
    key: "_class"
    value {
      list {
        s: "loc:@loss/Probabilities_loss/Mean"
      }
    }
  }
}
node {
  name: "training/Adam/gradients/loss/Probabilities_loss/Mean_grad/Reshape"
  op: "Reshape"
  input: "training/Adam/gradients/loss/Probabilities_loss/mul_1_grad/Reshape"
  input: "training/Adam/gradients/loss/Probabilities_loss/Mean_grad/DynamicStitch"
  attr {
    key: "T"
    value {
      type: DT_FLOAT
    }
  }
  attr {
    key: "Tshape"
    value {
      type: DT_INT32
    }
  }
  attr {
    key: "_class"
    value {
      list {
        s: "loc:@loss/Probabilities_loss/Mean"
      }
    }
  }
}
node {
  name: "training/Adam/gradients/loss/Probabilities_loss/Mean_grad/Tile"
  op: "Tile"
  input: "training/Adam/gradients/loss/Probabilities_loss/Mean_grad/Reshape"
  input: "training/Adam/gradients/loss/Probabilities_loss/Mean_grad/floordiv"
  attr {
    key: "T"
    value {
      type: DT_FLOAT
    }
  }
  attr {
    key: "Tmultiples"
    value {
      type: DT_INT32
    }
  }
  attr {
    key: "_class"
    value {
      list {
        s: "loc:@loss/Probabilities_loss/Mean"
      }
    }
  }
}
node {
  name: "training/Adam/gradients/loss/Probabilities_loss/Mean_grad/Shape_2"
  op: "Shape"
  input: "loss/Probabilities_loss/Neg"
  attr {
    key: "T"
    value {
      type: DT_FLOAT
    }
  }
  attr {
    key: "_class"
    value {
      list {
        s: "loc:@loss/Probabilities_loss/Mean"
      }
    }
  }
  attr {
    key: "out_type"
    value {
      type: DT_INT32
    }
  }
}
node {
  name: "training/Adam/gradients/loss/Probabilities_loss/Mean_grad/Shape_3"
  op: "Shape"
  input: "loss/Probabilities_loss/Mean"
  attr {
    key: "T"
    value {
      type: DT_FLOAT
    }
  }
  attr {
    key: "_class"
    value {
      list {
        s: "loc:@loss/Probabilities_loss/Mean"
      }
    }
  }
  attr {
    key: "out_type"
    value {
      type: DT_INT32
    }
  }
}
node {
  name: "training/Adam/gradients/loss/Probabilities_loss/Mean_grad/Const"
  op: "Const"
  attr {
    key: "_class"
    value {
      list {
        s: "loc:@loss/Probabilities_loss/Mean"
      }
    }
  }
  attr {
    key: "dtype"
    value {
      type: DT_INT32
    }
  }
  attr {
    key: "value"
    value {
      tensor {
        dtype: DT_INT32
        tensor_shape {
          dim {
            size: 1
          }
        }
        int_val: 0
      }
    }
  }
}
node {
  name: "training/Adam/gradients/loss/Probabilities_loss/Mean_grad/Prod"
  op: "Prod"
  input: "training/Adam/gradients/loss/Probabilities_loss/Mean_grad/Shape_2"
  input: "training/Adam/gradients/loss/Probabilities_loss/Mean_grad/Const"
  attr {
    key: "T"
    value {
      type: DT_INT32
    }
  }
  attr {
    key: "Tidx"
    value {
      type: DT_INT32
    }
  }
  attr {
    key: "_class"
    value {
      list {
        s: "loc:@loss/Probabilities_loss/Mean"
      }
    }
  }
  attr {
    key: "keep_dims"
    value {
      b: false
    }
  }
}
node {
  name: "training/Adam/gradients/loss/Probabilities_loss/Mean_grad/Const_1"
  op: "Const"
  attr {
    key: "_class"
    value {
      list {
        s: "loc:@loss/Probabilities_loss/Mean"
      }
    }
  }
  attr {
    key: "dtype"
    value {
      type: DT_INT32
    }
  }
  attr {
    key: "value"
    value {
      tensor {
        dtype: DT_INT32
        tensor_shape {
          dim {
            size: 1
          }
        }
        int_val: 0
      }
    }
  }
}
node {
  name: "training/Adam/gradients/loss/Probabilities_loss/Mean_grad/Prod_1"
  op: "Prod"
  input: "training/Adam/gradients/loss/Probabilities_loss/Mean_grad/Shape_3"
  input: "training/Adam/gradients/loss/Probabilities_loss/Mean_grad/Const_1"
  attr {
    key: "T"
    value {
      type: DT_INT32
    }
  }
  attr {
    key: "Tidx"
    value {
      type: DT_INT32
    }
  }
  attr {
    key: "_class"
    value {
      list {
        s: "loc:@loss/Probabilities_loss/Mean"
      }
    }
  }
  attr {
    key: "keep_dims"
    value {
      b: false
    }
  }
}
node {
  name: "training/Adam/gradients/loss/Probabilities_loss/Mean_grad/Maximum_1/y"
  op: "Const"
  attr {
    key: "_class"
    value {
      list {
        s: "loc:@loss/Probabilities_loss/Mean"
      }
    }
  }
  attr {
    key: "dtype"
    value {
      type: DT_INT32
    }
  }
  attr {
    key: "value"
    value {
      tensor {
        dtype: DT_INT32
        tensor_shape {
        }
        int_val: 1
      }
    }
  }
}
node {
  name: "training/Adam/gradients/loss/Probabilities_loss/Mean_grad/Maximum_1"
  op: "Maximum"
  input: "training/Adam/gradients/loss/Probabilities_loss/Mean_grad/Prod_1"
  input: "training/Adam/gradients/loss/Probabilities_loss/Mean_grad/Maximum_1/y"
  attr {
    key: "T"
    value {
      type: DT_INT32
    }
  }
  attr {
    key: "_class"
    value {
      list {
        s: "loc:@loss/Probabilities_loss/Mean"
      }
    }
  }
}
node {
  name: "training/Adam/gradients/loss/Probabilities_loss/Mean_grad/floordiv_1"
  op: "FloorDiv"
  input: "training/Adam/gradients/loss/Probabilities_loss/Mean_grad/Prod"
  input: "training/Adam/gradients/loss/Probabilities_loss/Mean_grad/Maximum_1"
  attr {
    key: "T"
    value {
      type: DT_INT32
    }
  }
  attr {
    key: "_class"
    value {
      list {
        s: "loc:@loss/Probabilities_loss/Mean"
      }
    }
  }
}
node {
  name: "training/Adam/gradients/loss/Probabilities_loss/Mean_grad/Cast"
  op: "Cast"
  input: "training/Adam/gradients/loss/Probabilities_loss/Mean_grad/floordiv_1"
  attr {
    key: "DstT"
    value {
      type: DT_FLOAT
    }
  }
  attr {
    key: "SrcT"
    value {
      type: DT_INT32
    }
  }
  attr {
    key: "_class"
    value {
      list {
        s: "loc:@loss/Probabilities_loss/Mean"
      }
    }
  }
}
node {
  name: "training/Adam/gradients/loss/Probabilities_loss/Mean_grad/truediv"
  op: "RealDiv"
  input: "training/Adam/gradients/loss/Probabilities_loss/Mean_grad/Tile"
  input: "training/Adam/gradients/loss/Probabilities_loss/Mean_grad/Cast"
  attr {
    key: "T"
    value {
      type: DT_FLOAT
    }
  }
  attr {
    key: "_class"
    value {
      list {
        s: "loc:@loss/Probabilities_loss/Mean"
      }
    }
  }
}
node {
  name: "training/Adam/gradients/loss/Probabilities_loss/Neg_grad/Neg"
  op: "Neg"
  input: "training/Adam/gradients/loss/Probabilities_loss/Mean_grad/truediv"
  attr {
    key: "T"
    value {
      type: DT_FLOAT
    }
  }
  attr {
    key: "_class"
    value {
      list {
        s: "loc:@loss/Probabilities_loss/Neg"
      }
    }
  }
}
node {
  name: "training/Adam/gradients/loss/Probabilities_loss/Sum_1_grad/Shape"
  op: "Shape"
  input: "loss/Probabilities_loss/mul"
  attr {
    key: "T"
    value {
      type: DT_FLOAT
    }
  }
  attr {
    key: "_class"
    value {
      list {
        s: "loc:@loss/Probabilities_loss/Sum_1"
      }
    }
  }
  attr {
    key: "out_type"
    value {
      type: DT_INT32
    }
  }
}
node {
  name: "training/Adam/gradients/loss/Probabilities_loss/Sum_1_grad/Size"
  op: "Const"
  attr {
    key: "_class"
    value {
      list {
        s: "loc:@loss/Probabilities_loss/Sum_1"
      }
    }
  }
  attr {
    key: "dtype"
    value {
      type: DT_INT32
    }
  }
  attr {
    key: "value"
    value {
      tensor {
        dtype: DT_INT32
        tensor_shape {
        }
        int_val: 2
      }
    }
  }
}
node {
  name: "training/Adam/gradients/loss/Probabilities_loss/Sum_1_grad/add"
  op: "Add"
  input: "loss/Probabilities_loss/Sum_1/reduction_indices"
  input: "training/Adam/gradients/loss/Probabilities_loss/Sum_1_grad/Size"
  attr {
    key: "T"
    value {
      type: DT_INT32
    }
  }
  attr {
    key: "_class"
    value {
      list {
        s: "loc:@loss/Probabilities_loss/Sum_1"
      }
    }
  }
}
node {
  name: "training/Adam/gradients/loss/Probabilities_loss/Sum_1_grad/mod"
  op: "FloorMod"
  input: "training/Adam/gradients/loss/Probabilities_loss/Sum_1_grad/add"
  input: "training/Adam/gradients/loss/Probabilities_loss/Sum_1_grad/Size"
  attr {
    key: "T"
    value {
      type: DT_INT32
    }
  }
  attr {
    key: "_class"
    value {
      list {
        s: "loc:@loss/Probabilities_loss/Sum_1"
      }
    }
  }
}
node {
  name: "training/Adam/gradients/loss/Probabilities_loss/Sum_1_grad/Shape_1"
  op: "Const"
  attr {
    key: "_class"
    value {
      list {
        s: "loc:@loss/Probabilities_loss/Sum_1"
      }
    }
  }
  attr {
    key: "dtype"
    value {
      type: DT_INT32
    }
  }
  attr {
    key: "value"
    value {
      tensor {
        dtype: DT_INT32
        tensor_shape {
          dim {
          }
        }
      }
    }
  }
}
node {
  name: "training/Adam/gradients/loss/Probabilities_loss/Sum_1_grad/range/start"
  op: "Const"
  attr {
    key: "_class"
    value {
      list {
        s: "loc:@loss/Probabilities_loss/Sum_1"
      }
    }
  }
  attr {
    key: "dtype"
    value {
      type: DT_INT32
    }
  }
  attr {
    key: "value"
    value {
      tensor {
        dtype: DT_INT32
        tensor_shape {
        }
        int_val: 0
      }
    }
  }
}
node {
  name: "training/Adam/gradients/loss/Probabilities_loss/Sum_1_grad/range/delta"
  op: "Const"
  attr {
    key: "_class"
    value {
      list {
        s: "loc:@loss/Probabilities_loss/Sum_1"
      }
    }
  }
  attr {
    key: "dtype"
    value {
      type: DT_INT32
    }
  }
  attr {
    key: "value"
    value {
      tensor {
        dtype: DT_INT32
        tensor_shape {
        }
        int_val: 1
      }
    }
  }
}
node {
  name: "training/Adam/gradients/loss/Probabilities_loss/Sum_1_grad/range"
  op: "Range"
  input: "training/Adam/gradients/loss/Probabilities_loss/Sum_1_grad/range/start"
  input: "training/Adam/gradients/loss/Probabilities_loss/Sum_1_grad/Size"
  input: "training/Adam/gradients/loss/Probabilities_loss/Sum_1_grad/range/delta"
  attr {
    key: "Tidx"
    value {
      type: DT_INT32
    }
  }
  attr {
    key: "_class"
    value {
      list {
        s: "loc:@loss/Probabilities_loss/Sum_1"
      }
    }
  }
}
node {
  name: "training/Adam/gradients/loss/Probabilities_loss/Sum_1_grad/Fill/value"
  op: "Const"
  attr {
    key: "_class"
    value {
      list {
        s: "loc:@loss/Probabilities_loss/Sum_1"
      }
    }
  }
  attr {
    key: "dtype"
    value {
      type: DT_INT32
    }
  }
  attr {
    key: "value"
    value {
      tensor {
        dtype: DT_INT32
        tensor_shape {
        }
        int_val: 1
      }
    }
  }
}
node {
  name: "training/Adam/gradients/loss/Probabilities_loss/Sum_1_grad/Fill"
  op: "Fill"
  input: "training/Adam/gradients/loss/Probabilities_loss/Sum_1_grad/Shape_1"
  input: "training/Adam/gradients/loss/Probabilities_loss/Sum_1_grad/Fill/value"
  attr {
    key: "T"
    value {
      type: DT_INT32
    }
  }
  attr {
    key: "_class"
    value {
      list {
        s: "loc:@loss/Probabilities_loss/Sum_1"
      }
    }
  }
  attr {
    key: "index_type"
    value {
      type: DT_INT32
    }
  }
}
node {
  name: "training/Adam/gradients/loss/Probabilities_loss/Sum_1_grad/DynamicStitch"
  op: "DynamicStitch"
  input: "training/Adam/gradients/loss/Probabilities_loss/Sum_1_grad/range"
  input: "training/Adam/gradients/loss/Probabilities_loss/Sum_1_grad/mod"
  input: "training/Adam/gradients/loss/Probabilities_loss/Sum_1_grad/Shape"
  input: "training/Adam/gradients/loss/Probabilities_loss/Sum_1_grad/Fill"
  attr {
    key: "N"
    value {
      i: 2
    }
  }
  attr {
    key: "T"
    value {
      type: DT_INT32
    }
  }
  attr {
    key: "_class"
    value {
      list {
        s: "loc:@loss/Probabilities_loss/Sum_1"
      }
    }
  }
}
node {
  name: "training/Adam/gradients/loss/Probabilities_loss/Sum_1_grad/Maximum/y"
  op: "Const"
  attr {
    key: "_class"
    value {
      list {
        s: "loc:@loss/Probabilities_loss/Sum_1"
      }
    }
  }
  attr {
    key: "dtype"
    value {
      type: DT_INT32
    }
  }
  attr {
    key: "value"
    value {
      tensor {
        dtype: DT_INT32
        tensor_shape {
        }
        int_val: 1
      }
    }
  }
}
node {
  name: "training/Adam/gradients/loss/Probabilities_loss/Sum_1_grad/Maximum"
  op: "Maximum"
  input: "training/Adam/gradients/loss/Probabilities_loss/Sum_1_grad/DynamicStitch"
  input: "training/Adam/gradients/loss/Probabilities_loss/Sum_1_grad/Maximum/y"
  attr {
    key: "T"
    value {
      type: DT_INT32
    }
  }
  attr {
    key: "_class"
    value {
      list {
        s: "loc:@loss/Probabilities_loss/Sum_1"
      }
    }
  }
}
node {
  name: "training/Adam/gradients/loss/Probabilities_loss/Sum_1_grad/floordiv"
  op: "FloorDiv"
  input: "training/Adam/gradients/loss/Probabilities_loss/Sum_1_grad/Shape"
  input: "training/Adam/gradients/loss/Probabilities_loss/Sum_1_grad/Maximum"
  attr {
    key: "T"
    value {
      type: DT_INT32
    }
  }
  attr {
    key: "_class"
    value {
      list {
        s: "loc:@loss/Probabilities_loss/Sum_1"
      }
    }
  }
}
node {
  name: "training/Adam/gradients/loss/Probabilities_loss/Sum_1_grad/Reshape"
  op: "Reshape"
  input: "training/Adam/gradients/loss/Probabilities_loss/Neg_grad/Neg"
  input: "training/Adam/gradients/loss/Probabilities_loss/Sum_1_grad/DynamicStitch"
  attr {
    key: "T"
    value {
      type: DT_FLOAT
    }
  }
  attr {
    key: "Tshape"
    value {
      type: DT_INT32
    }
  }
  attr {
    key: "_class"
    value {
      list {
        s: "loc:@loss/Probabilities_loss/Sum_1"
      }
    }
  }
}
node {
  name: "training/Adam/gradients/loss/Probabilities_loss/Sum_1_grad/Tile"
  op: "Tile"
  input: "training/Adam/gradients/loss/Probabilities_loss/Sum_1_grad/Reshape"
  input: "training/Adam/gradients/loss/Probabilities_loss/Sum_1_grad/floordiv"
  attr {
    key: "T"
    value {
      type: DT_FLOAT
    }
  }
  attr {
    key: "Tmultiples"
    value {
      type: DT_INT32
    }
  }
  attr {
    key: "_class"
    value {
      list {
        s: "loc:@loss/Probabilities_loss/Sum_1"
      }
    }
  }
}
node {
  name: "training/Adam/gradients/loss/Probabilities_loss/mul_grad/Shape"
  op: "Shape"
  input: "Probabilities_target"
  attr {
    key: "T"
    value {
      type: DT_FLOAT
    }
  }
  attr {
    key: "_class"
    value {
      list {
        s: "loc:@loss/Probabilities_loss/mul"
      }
    }
  }
  attr {
    key: "out_type"
    value {
      type: DT_INT32
    }
  }
}
node {
  name: "training/Adam/gradients/loss/Probabilities_loss/mul_grad/Shape_1"
  op: "Shape"
  input: "loss/Probabilities_loss/Log"
  attr {
    key: "T"
    value {
      type: DT_FLOAT
    }
  }
  attr {
    key: "_class"
    value {
      list {
        s: "loc:@loss/Probabilities_loss/mul"
      }
    }
  }
  attr {
    key: "out_type"
    value {
      type: DT_INT32
    }
  }
}
node {
  name: "training/Adam/gradients/loss/Probabilities_loss/mul_grad/BroadcastGradientArgs"
  op: "BroadcastGradientArgs"
  input: "training/Adam/gradients/loss/Probabilities_loss/mul_grad/Shape"
  input: "training/Adam/gradients/loss/Probabilities_loss/mul_grad/Shape_1"
  attr {
    key: "T"
    value {
      type: DT_INT32
    }
  }
  attr {
    key: "_class"
    value {
      list {
        s: "loc:@loss/Probabilities_loss/mul"
      }
    }
  }
}
node {
  name: "training/Adam/gradients/loss/Probabilities_loss/mul_grad/mul"
  op: "Mul"
  input: "training/Adam/gradients/loss/Probabilities_loss/Sum_1_grad/Tile"
  input: "loss/Probabilities_loss/Log"
  attr {
    key: "T"
    value {
      type: DT_FLOAT
    }
  }
  attr {
    key: "_class"
    value {
      list {
        s: "loc:@loss/Probabilities_loss/mul"
      }
    }
  }
}
node {
  name: "training/Adam/gradients/loss/Probabilities_loss/mul_grad/Sum"
  op: "Sum"
  input: "training/Adam/gradients/loss/Probabilities_loss/mul_grad/mul"
  input: "training/Adam/gradients/loss/Probabilities_loss/mul_grad/BroadcastGradientArgs"
  attr {
    key: "T"
    value {
      type: DT_FLOAT
    }
  }
  attr {
    key: "Tidx"
    value {
      type: DT_INT32
    }
  }
  attr {
    key: "_class"
    value {
      list {
        s: "loc:@loss/Probabilities_loss/mul"
      }
    }
  }
  attr {
    key: "keep_dims"
    value {
      b: false
    }
  }
}
node {
  name: "training/Adam/gradients/loss/Probabilities_loss/mul_grad/Reshape"
  op: "Reshape"
  input: "training/Adam/gradients/loss/Probabilities_loss/mul_grad/Sum"
  input: "training/Adam/gradients/loss/Probabilities_loss/mul_grad/Shape"
  attr {
    key: "T"
    value {
      type: DT_FLOAT
    }
  }
  attr {
    key: "Tshape"
    value {
      type: DT_INT32
    }
  }
  attr {
    key: "_class"
    value {
      list {
        s: "loc:@loss/Probabilities_loss/mul"
      }
    }
  }
}
node {
  name: "training/Adam/gradients/loss/Probabilities_loss/mul_grad/mul_1"
  op: "Mul"
  input: "Probabilities_target"
  input: "training/Adam/gradients/loss/Probabilities_loss/Sum_1_grad/Tile"
  attr {
    key: "T"
    value {
      type: DT_FLOAT
    }
  }
  attr {
    key: "_class"
    value {
      list {
        s: "loc:@loss/Probabilities_loss/mul"
      }
    }
  }
}
node {
  name: "training/Adam/gradients/loss/Probabilities_loss/mul_grad/Sum_1"
  op: "Sum"
  input: "training/Adam/gradients/loss/Probabilities_loss/mul_grad/mul_1"
  input: "training/Adam/gradients/loss/Probabilities_loss/mul_grad/BroadcastGradientArgs:1"
  attr {
    key: "T"
    value {
      type: DT_FLOAT
    }
  }
  attr {
    key: "Tidx"
    value {
      type: DT_INT32
    }
  }
  attr {
    key: "_class"
    value {
      list {
        s: "loc:@loss/Probabilities_loss/mul"
      }
    }
  }
  attr {
    key: "keep_dims"
    value {
      b: false
    }
  }
}
node {
  name: "training/Adam/gradients/loss/Probabilities_loss/mul_grad/Reshape_1"
  op: "Reshape"
  input: "training/Adam/gradients/loss/Probabilities_loss/mul_grad/Sum_1"
  input: "training/Adam/gradients/loss/Probabilities_loss/mul_grad/Shape_1"
  attr {
    key: "T"
    value {
      type: DT_FLOAT
    }
  }
  attr {
    key: "Tshape"
    value {
      type: DT_INT32
    }
  }
  attr {
    key: "_class"
    value {
      list {
        s: "loc:@loss/Probabilities_loss/mul"
      }
    }
  }
}
node {
  name: "training/Adam/gradients/loss/Probabilities_loss/Log_grad/Reciprocal"
  op: "Reciprocal"
  input: "loss/Probabilities_loss/clip_by_value"
  input: "^training/Adam/gradients/loss/Probabilities_loss/mul_grad/Reshape_1"
  attr {
    key: "T"
    value {
      type: DT_FLOAT
    }
  }
  attr {
    key: "_class"
    value {
      list {
        s: "loc:@loss/Probabilities_loss/Log"
      }
    }
  }
}
node {
  name: "training/Adam/gradients/loss/Probabilities_loss/Log_grad/mul"
  op: "Mul"
  input: "training/Adam/gradients/loss/Probabilities_loss/mul_grad/Reshape_1"
  input: "training/Adam/gradients/loss/Probabilities_loss/Log_grad/Reciprocal"
  attr {
    key: "T"
    value {
      type: DT_FLOAT
    }
  }
  attr {
    key: "_class"
    value {
      list {
        s: "loc:@loss/Probabilities_loss/Log"
      }
    }
  }
}
node {
  name: "training/Adam/gradients/loss/Probabilities_loss/clip_by_value_grad/Shape"
  op: "Shape"
  input: "loss/Probabilities_loss/clip_by_value/Minimum"
  attr {
    key: "T"
    value {
      type: DT_FLOAT
    }
  }
  attr {
    key: "_class"
    value {
      list {
        s: "loc:@loss/Probabilities_loss/clip_by_value"
      }
    }
  }
  attr {
    key: "out_type"
    value {
      type: DT_INT32
    }
  }
}
node {
  name: "training/Adam/gradients/loss/Probabilities_loss/clip_by_value_grad/Shape_1"
  op: "Const"
  attr {
    key: "_class"
    value {
      list {
        s: "loc:@loss/Probabilities_loss/clip_by_value"
      }
    }
  }
  attr {
    key: "dtype"
    value {
      type: DT_INT32
    }
  }
  attr {
    key: "value"
    value {
      tensor {
        dtype: DT_INT32
        tensor_shape {
          dim {
          }
        }
      }
    }
  }
}
node {
  name: "training/Adam/gradients/loss/Probabilities_loss/clip_by_value_grad/Shape_2"
  op: "Shape"
  input: "training/Adam/gradients/loss/Probabilities_loss/Log_grad/mul"
  attr {
    key: "T"
    value {
      type: DT_FLOAT
    }
  }
  attr {
    key: "_class"
    value {
      list {
        s: "loc:@loss/Probabilities_loss/clip_by_value"
      }
    }
  }
  attr {
    key: "out_type"
    value {
      type: DT_INT32
    }
  }
}
node {
  name: "training/Adam/gradients/loss/Probabilities_loss/clip_by_value_grad/zeros/Const"
  op: "Const"
  attr {
    key: "_class"
    value {
      list {
        s: "loc:@loss/Probabilities_loss/clip_by_value"
      }
    }
  }
  attr {
    key: "dtype"
    value {
      type: DT_FLOAT
    }
  }
  attr {
    key: "value"
    value {
      tensor {
        dtype: DT_FLOAT
        tensor_shape {
        }
        float_val: 0.0
      }
    }
  }
}
node {
  name: "training/Adam/gradients/loss/Probabilities_loss/clip_by_value_grad/zeros"
  op: "Fill"
  input: "training/Adam/gradients/loss/Probabilities_loss/clip_by_value_grad/Shape_2"
  input: "training/Adam/gradients/loss/Probabilities_loss/clip_by_value_grad/zeros/Const"
  attr {
    key: "T"
    value {
      type: DT_FLOAT
    }
  }
  attr {
    key: "_class"
    value {
      list {
        s: "loc:@loss/Probabilities_loss/clip_by_value"
      }
    }
  }
  attr {
    key: "index_type"
    value {
      type: DT_INT32
    }
  }
}
node {
  name: "training/Adam/gradients/loss/Probabilities_loss/clip_by_value_grad/GreaterEqual"
  op: "GreaterEqual"
  input: "loss/Probabilities_loss/clip_by_value/Minimum"
  input: "loss/Probabilities_loss/Const"
  attr {
    key: "T"
    value {
      type: DT_FLOAT
    }
  }
  attr {
    key: "_class"
    value {
      list {
        s: "loc:@loss/Probabilities_loss/clip_by_value"
      }
    }
  }
}
node {
  name: "training/Adam/gradients/loss/Probabilities_loss/clip_by_value_grad/BroadcastGradientArgs"
  op: "BroadcastGradientArgs"
  input: "training/Adam/gradients/loss/Probabilities_loss/clip_by_value_grad/Shape"
  input: "training/Adam/gradients/loss/Probabilities_loss/clip_by_value_grad/Shape_1"
  attr {
    key: "T"
    value {
      type: DT_INT32
    }
  }
  attr {
    key: "_class"
    value {
      list {
        s: "loc:@loss/Probabilities_loss/clip_by_value"
      }
    }
  }
}
node {
  name: "training/Adam/gradients/loss/Probabilities_loss/clip_by_value_grad/Select"
  op: "Select"
  input: "training/Adam/gradients/loss/Probabilities_loss/clip_by_value_grad/GreaterEqual"
  input: "training/Adam/gradients/loss/Probabilities_loss/Log_grad/mul"
  input: "training/Adam/gradients/loss/Probabilities_loss/clip_by_value_grad/zeros"
  attr {
    key: "T"
    value {
      type: DT_FLOAT
    }
  }
  attr {
    key: "_class"
    value {
      list {
        s: "loc:@loss/Probabilities_loss/clip_by_value"
      }
    }
  }
}
node {
  name: "training/Adam/gradients/loss/Probabilities_loss/clip_by_value_grad/Select_1"
  op: "Select"
  input: "training/Adam/gradients/loss/Probabilities_loss/clip_by_value_grad/GreaterEqual"
  input: "training/Adam/gradients/loss/Probabilities_loss/clip_by_value_grad/zeros"
  input: "training/Adam/gradients/loss/Probabilities_loss/Log_grad/mul"
  attr {
    key: "T"
    value {
      type: DT_FLOAT
    }
  }
  attr {
    key: "_class"
    value {
      list {
        s: "loc:@loss/Probabilities_loss/clip_by_value"
      }
    }
  }
}
node {
  name: "training/Adam/gradients/loss/Probabilities_loss/clip_by_value_grad/Sum"
  op: "Sum"
  input: "training/Adam/gradients/loss/Probabilities_loss/clip_by_value_grad/Select"
  input: "training/Adam/gradients/loss/Probabilities_loss/clip_by_value_grad/BroadcastGradientArgs"
  attr {
    key: "T"
    value {
      type: DT_FLOAT
    }
  }
  attr {
    key: "Tidx"
    value {
      type: DT_INT32
    }
  }
  attr {
    key: "_class"
    value {
      list {
        s: "loc:@loss/Probabilities_loss/clip_by_value"
      }
    }
  }
  attr {
    key: "keep_dims"
    value {
      b: false
    }
  }
}
node {
  name: "training/Adam/gradients/loss/Probabilities_loss/clip_by_value_grad/Reshape"
  op: "Reshape"
  input: "training/Adam/gradients/loss/Probabilities_loss/clip_by_value_grad/Sum"
  input: "training/Adam/gradients/loss/Probabilities_loss/clip_by_value_grad/Shape"
  attr {
    key: "T"
    value {
      type: DT_FLOAT
    }
  }
  attr {
    key: "Tshape"
    value {
      type: DT_INT32
    }
  }
  attr {
    key: "_class"
    value {
      list {
        s: "loc:@loss/Probabilities_loss/clip_by_value"
      }
    }
  }
}
node {
  name: "training/Adam/gradients/loss/Probabilities_loss/clip_by_value_grad/Sum_1"
  op: "Sum"
  input: "training/Adam/gradients/loss/Probabilities_loss/clip_by_value_grad/Select_1"
  input: "training/Adam/gradients/loss/Probabilities_loss/clip_by_value_grad/BroadcastGradientArgs:1"
  attr {
    key: "T"
    value {
      type: DT_FLOAT
    }
  }
  attr {
    key: "Tidx"
    value {
      type: DT_INT32
    }
  }
  attr {
    key: "_class"
    value {
      list {
        s: "loc:@loss/Probabilities_loss/clip_by_value"
      }
    }
  }
  attr {
    key: "keep_dims"
    value {
      b: false
    }
  }
}
node {
  name: "training/Adam/gradients/loss/Probabilities_loss/clip_by_value_grad/Reshape_1"
  op: "Reshape"
  input: "training/Adam/gradients/loss/Probabilities_loss/clip_by_value_grad/Sum_1"
  input: "training/Adam/gradients/loss/Probabilities_loss/clip_by_value_grad/Shape_1"
  attr {
    key: "T"
    value {
      type: DT_FLOAT
    }
  }
  attr {
    key: "Tshape"
    value {
      type: DT_INT32
    }
  }
  attr {
    key: "_class"
    value {
      list {
        s: "loc:@loss/Probabilities_loss/clip_by_value"
      }
    }
  }
}
node {
  name: "training/Adam/gradients/loss/Probabilities_loss/clip_by_value/Minimum_grad/Shape"
  op: "Shape"
  input: "loss/Probabilities_loss/truediv"
  attr {
    key: "T"
    value {
      type: DT_FLOAT
    }
  }
  attr {
    key: "_class"
    value {
      list {
        s: "loc:@loss/Probabilities_loss/clip_by_value/Minimum"
      }
    }
  }
  attr {
    key: "out_type"
    value {
      type: DT_INT32
    }
  }
}
node {
  name: "training/Adam/gradients/loss/Probabilities_loss/clip_by_value/Minimum_grad/Shape_1"
  op: "Const"
  attr {
    key: "_class"
    value {
      list {
        s: "loc:@loss/Probabilities_loss/clip_by_value/Minimum"
      }
    }
  }
  attr {
    key: "dtype"
    value {
      type: DT_INT32
    }
  }
  attr {
    key: "value"
    value {
      tensor {
        dtype: DT_INT32
        tensor_shape {
          dim {
          }
        }
      }
    }
  }
}
node {
  name: "training/Adam/gradients/loss/Probabilities_loss/clip_by_value/Minimum_grad/Shape_2"
  op: "Shape"
  input: "training/Adam/gradients/loss/Probabilities_loss/clip_by_value_grad/Reshape"
  attr {
    key: "T"
    value {
      type: DT_FLOAT
    }
  }
  attr {
    key: "_class"
    value {
      list {
        s: "loc:@loss/Probabilities_loss/clip_by_value/Minimum"
      }
    }
  }
  attr {
    key: "out_type"
    value {
      type: DT_INT32
    }
  }
}
node {
  name: "training/Adam/gradients/loss/Probabilities_loss/clip_by_value/Minimum_grad/zeros/Const"
  op: "Const"
  attr {
    key: "_class"
    value {
      list {
        s: "loc:@loss/Probabilities_loss/clip_by_value/Minimum"
      }
    }
  }
  attr {
    key: "dtype"
    value {
      type: DT_FLOAT
    }
  }
  attr {
    key: "value"
    value {
      tensor {
        dtype: DT_FLOAT
        tensor_shape {
        }
        float_val: 0.0
      }
    }
  }
}
node {
  name: "training/Adam/gradients/loss/Probabilities_loss/clip_by_value/Minimum_grad/zeros"
  op: "Fill"
  input: "training/Adam/gradients/loss/Probabilities_loss/clip_by_value/Minimum_grad/Shape_2"
  input: "training/Adam/gradients/loss/Probabilities_loss/clip_by_value/Minimum_grad/zeros/Const"
  attr {
    key: "T"
    value {
      type: DT_FLOAT
    }
  }
  attr {
    key: "_class"
    value {
      list {
        s: "loc:@loss/Probabilities_loss/clip_by_value/Minimum"
      }
    }
  }
  attr {
    key: "index_type"
    value {
      type: DT_INT32
    }
  }
}
node {
  name: "training/Adam/gradients/loss/Probabilities_loss/clip_by_value/Minimum_grad/LessEqual"
  op: "LessEqual"
  input: "loss/Probabilities_loss/truediv"
  input: "loss/Probabilities_loss/sub"
  attr {
    key: "T"
    value {
      type: DT_FLOAT
    }
  }
  attr {
    key: "_class"
    value {
      list {
        s: "loc:@loss/Probabilities_loss/clip_by_value/Minimum"
      }
    }
  }
}
node {
  name: "training/Adam/gradients/loss/Probabilities_loss/clip_by_value/Minimum_grad/BroadcastGradientArgs"
  op: "BroadcastGradientArgs"
  input: "training/Adam/gradients/loss/Probabilities_loss/clip_by_value/Minimum_grad/Shape"
  input: "training/Adam/gradients/loss/Probabilities_loss/clip_by_value/Minimum_grad/Shape_1"
  attr {
    key: "T"
    value {
      type: DT_INT32
    }
  }
  attr {
    key: "_class"
    value {
      list {
        s: "loc:@loss/Probabilities_loss/clip_by_value/Minimum"
      }
    }
  }
}
node {
  name: "training/Adam/gradients/loss/Probabilities_loss/clip_by_value/Minimum_grad/Select"
  op: "Select"
  input: "training/Adam/gradients/loss/Probabilities_loss/clip_by_value/Minimum_grad/LessEqual"
  input: "training/Adam/gradients/loss/Probabilities_loss/clip_by_value_grad/Reshape"
  input: "training/Adam/gradients/loss/Probabilities_loss/clip_by_value/Minimum_grad/zeros"
  attr {
    key: "T"
    value {
      type: DT_FLOAT
    }
  }
  attr {
    key: "_class"
    value {
      list {
        s: "loc:@loss/Probabilities_loss/clip_by_value/Minimum"
      }
    }
  }
}
node {
  name: "training/Adam/gradients/loss/Probabilities_loss/clip_by_value/Minimum_grad/Select_1"
  op: "Select"
  input: "training/Adam/gradients/loss/Probabilities_loss/clip_by_value/Minimum_grad/LessEqual"
  input: "training/Adam/gradients/loss/Probabilities_loss/clip_by_value/Minimum_grad/zeros"
  input: "training/Adam/gradients/loss/Probabilities_loss/clip_by_value_grad/Reshape"
  attr {
    key: "T"
    value {
      type: DT_FLOAT
    }
  }
  attr {
    key: "_class"
    value {
      list {
        s: "loc:@loss/Probabilities_loss/clip_by_value/Minimum"
      }
    }
  }
}
node {
  name: "training/Adam/gradients/loss/Probabilities_loss/clip_by_value/Minimum_grad/Sum"
  op: "Sum"
  input: "training/Adam/gradients/loss/Probabilities_loss/clip_by_value/Minimum_grad/Select"
  input: "training/Adam/gradients/loss/Probabilities_loss/clip_by_value/Minimum_grad/BroadcastGradientArgs"
  attr {
    key: "T"
    value {
      type: DT_FLOAT
    }
  }
  attr {
    key: "Tidx"
    value {
      type: DT_INT32
    }
  }
  attr {
    key: "_class"
    value {
      list {
        s: "loc:@loss/Probabilities_loss/clip_by_value/Minimum"
      }
    }
  }
  attr {
    key: "keep_dims"
    value {
      b: false
    }
  }
}
node {
  name: "training/Adam/gradients/loss/Probabilities_loss/clip_by_value/Minimum_grad/Reshape"
  op: "Reshape"
  input: "training/Adam/gradients/loss/Probabilities_loss/clip_by_value/Minimum_grad/Sum"
  input: "training/Adam/gradients/loss/Probabilities_loss/clip_by_value/Minimum_grad/Shape"
  attr {
    key: "T"
    value {
      type: DT_FLOAT
    }
  }
  attr {
    key: "Tshape"
    value {
      type: DT_INT32
    }
  }
  attr {
    key: "_class"
    value {
      list {
        s: "loc:@loss/Probabilities_loss/clip_by_value/Minimum"
      }
    }
  }
}
node {
  name: "training/Adam/gradients/loss/Probabilities_loss/clip_by_value/Minimum_grad/Sum_1"
  op: "Sum"
  input: "training/Adam/gradients/loss/Probabilities_loss/clip_by_value/Minimum_grad/Select_1"
  input: "training/Adam/gradients/loss/Probabilities_loss/clip_by_value/Minimum_grad/BroadcastGradientArgs:1"
  attr {
    key: "T"
    value {
      type: DT_FLOAT
    }
  }
  attr {
    key: "Tidx"
    value {
      type: DT_INT32
    }
  }
  attr {
    key: "_class"
    value {
      list {
        s: "loc:@loss/Probabilities_loss/clip_by_value/Minimum"
      }
    }
  }
  attr {
    key: "keep_dims"
    value {
      b: false
    }
  }
}
node {
  name: "training/Adam/gradients/loss/Probabilities_loss/clip_by_value/Minimum_grad/Reshape_1"
  op: "Reshape"
  input: "training/Adam/gradients/loss/Probabilities_loss/clip_by_value/Minimum_grad/Sum_1"
  input: "training/Adam/gradients/loss/Probabilities_loss/clip_by_value/Minimum_grad/Shape_1"
  attr {
    key: "T"
    value {
      type: DT_FLOAT
    }
  }
  attr {
    key: "Tshape"
    value {
      type: DT_INT32
    }
  }
  attr {
    key: "_class"
    value {
      list {
        s: "loc:@loss/Probabilities_loss/clip_by_value/Minimum"
      }
    }
  }
}
node {
  name: "training/Adam/gradients/loss/Probabilities_loss/truediv_grad/Shape"
  op: "Shape"
  input: "Probabilities/Softmax"
  attr {
    key: "T"
    value {
      type: DT_FLOAT
    }
  }
  attr {
    key: "_class"
    value {
      list {
        s: "loc:@loss/Probabilities_loss/truediv"
      }
    }
  }
  attr {
    key: "out_type"
    value {
      type: DT_INT32
    }
  }
}
node {
  name: "training/Adam/gradients/loss/Probabilities_loss/truediv_grad/Shape_1"
  op: "Shape"
  input: "loss/Probabilities_loss/Sum"
  attr {
    key: "T"
    value {
      type: DT_FLOAT
    }
  }
  attr {
    key: "_class"
    value {
      list {
        s: "loc:@loss/Probabilities_loss/truediv"
      }
    }
  }
  attr {
    key: "out_type"
    value {
      type: DT_INT32
    }
  }
}
node {
  name: "training/Adam/gradients/loss/Probabilities_loss/truediv_grad/BroadcastGradientArgs"
  op: "BroadcastGradientArgs"
  input: "training/Adam/gradients/loss/Probabilities_loss/truediv_grad/Shape"
  input: "training/Adam/gradients/loss/Probabilities_loss/truediv_grad/Shape_1"
  attr {
    key: "T"
    value {
      type: DT_INT32
    }
  }
  attr {
    key: "_class"
    value {
      list {
        s: "loc:@loss/Probabilities_loss/truediv"
      }
    }
  }
}
node {
  name: "training/Adam/gradients/loss/Probabilities_loss/truediv_grad/RealDiv"
  op: "RealDiv"
  input: "training/Adam/gradients/loss/Probabilities_loss/clip_by_value/Minimum_grad/Reshape"
  input: "loss/Probabilities_loss/Sum"
  attr {
    key: "T"
    value {
      type: DT_FLOAT
    }
  }
  attr {
    key: "_class"
    value {
      list {
        s: "loc:@loss/Probabilities_loss/truediv"
      }
    }
  }
}
node {
  name: "training/Adam/gradients/loss/Probabilities_loss/truediv_grad/Sum"
  op: "Sum"
  input: "training/Adam/gradients/loss/Probabilities_loss/truediv_grad/RealDiv"
  input: "training/Adam/gradients/loss/Probabilities_loss/truediv_grad/BroadcastGradientArgs"
  attr {
    key: "T"
    value {
      type: DT_FLOAT
    }
  }
  attr {
    key: "Tidx"
    value {
      type: DT_INT32
    }
  }
  attr {
    key: "_class"
    value {
      list {
        s: "loc:@loss/Probabilities_loss/truediv"
      }
    }
  }
  attr {
    key: "keep_dims"
    value {
      b: false
    }
  }
}
node {
  name: "training/Adam/gradients/loss/Probabilities_loss/truediv_grad/Reshape"
  op: "Reshape"
  input: "training/Adam/gradients/loss/Probabilities_loss/truediv_grad/Sum"
  input: "training/Adam/gradients/loss/Probabilities_loss/truediv_grad/Shape"
  attr {
    key: "T"
    value {
      type: DT_FLOAT
    }
  }
  attr {
    key: "Tshape"
    value {
      type: DT_INT32
    }
  }
  attr {
    key: "_class"
    value {
      list {
        s: "loc:@loss/Probabilities_loss/truediv"
      }
    }
  }
}
node {
  name: "training/Adam/gradients/loss/Probabilities_loss/truediv_grad/Neg"
  op: "Neg"
  input: "Probabilities/Softmax"
  attr {
    key: "T"
    value {
      type: DT_FLOAT
    }
  }
  attr {
    key: "_class"
    value {
      list {
        s: "loc:@loss/Probabilities_loss/truediv"
      }
    }
  }
}
node {
  name: "training/Adam/gradients/loss/Probabilities_loss/truediv_grad/RealDiv_1"
  op: "RealDiv"
  input: "training/Adam/gradients/loss/Probabilities_loss/truediv_grad/Neg"
  input: "loss/Probabilities_loss/Sum"
  attr {
    key: "T"
    value {
      type: DT_FLOAT
    }
  }
  attr {
    key: "_class"
    value {
      list {
        s: "loc:@loss/Probabilities_loss/truediv"
      }
    }
  }
}
node {
  name: "training/Adam/gradients/loss/Probabilities_loss/truediv_grad/RealDiv_2"
  op: "RealDiv"
  input: "training/Adam/gradients/loss/Probabilities_loss/truediv_grad/RealDiv_1"
  input: "loss/Probabilities_loss/Sum"
  attr {
    key: "T"
    value {
      type: DT_FLOAT
    }
  }
  attr {
    key: "_class"
    value {
      list {
        s: "loc:@loss/Probabilities_loss/truediv"
      }
    }
  }
}
node {
  name: "training/Adam/gradients/loss/Probabilities_loss/truediv_grad/mul"
  op: "Mul"
  input: "training/Adam/gradients/loss/Probabilities_loss/clip_by_value/Minimum_grad/Reshape"
  input: "training/Adam/gradients/loss/Probabilities_loss/truediv_grad/RealDiv_2"
  attr {
    key: "T"
    value {
      type: DT_FLOAT
    }
  }
  attr {
    key: "_class"
    value {
      list {
        s: "loc:@loss/Probabilities_loss/truediv"
      }
    }
  }
}
node {
  name: "training/Adam/gradients/loss/Probabilities_loss/truediv_grad/Sum_1"
  op: "Sum"
  input: "training/Adam/gradients/loss/Probabilities_loss/truediv_grad/mul"
  input: "training/Adam/gradients/loss/Probabilities_loss/truediv_grad/BroadcastGradientArgs:1"
  attr {
    key: "T"
    value {
      type: DT_FLOAT
    }
  }
  attr {
    key: "Tidx"
    value {
      type: DT_INT32
    }
  }
  attr {
    key: "_class"
    value {
      list {
        s: "loc:@loss/Probabilities_loss/truediv"
      }
    }
  }
  attr {
    key: "keep_dims"
    value {
      b: false
    }
  }
}
node {
  name: "training/Adam/gradients/loss/Probabilities_loss/truediv_grad/Reshape_1"
  op: "Reshape"
  input: "training/Adam/gradients/loss/Probabilities_loss/truediv_grad/Sum_1"
  input: "training/Adam/gradients/loss/Probabilities_loss/truediv_grad/Shape_1"
  attr {
    key: "T"
    value {
      type: DT_FLOAT
    }
  }
  attr {
    key: "Tshape"
    value {
      type: DT_INT32
    }
  }
  attr {
    key: "_class"
    value {
      list {
        s: "loc:@loss/Probabilities_loss/truediv"
      }
    }
  }
}
node {
  name: "training/Adam/gradients/loss/Probabilities_loss/Sum_grad/Shape"
  op: "Shape"
  input: "Probabilities/Softmax"
  attr {
    key: "T"
    value {
      type: DT_FLOAT
    }
  }
  attr {
    key: "_class"
    value {
      list {
        s: "loc:@loss/Probabilities_loss/Sum"
      }
    }
  }
  attr {
    key: "out_type"
    value {
      type: DT_INT32
    }
  }
}
node {
  name: "training/Adam/gradients/loss/Probabilities_loss/Sum_grad/Size"
  op: "Const"
  attr {
    key: "_class"
    value {
      list {
        s: "loc:@loss/Probabilities_loss/Sum"
      }
    }
  }
  attr {
    key: "dtype"
    value {
      type: DT_INT32
    }
  }
  attr {
    key: "value"
    value {
      tensor {
        dtype: DT_INT32
        tensor_shape {
        }
        int_val: 2
      }
    }
  }
}
node {
  name: "training/Adam/gradients/loss/Probabilities_loss/Sum_grad/add"
  op: "Add"
  input: "loss/Probabilities_loss/Sum/reduction_indices"
  input: "training/Adam/gradients/loss/Probabilities_loss/Sum_grad/Size"
  attr {
    key: "T"
    value {
      type: DT_INT32
    }
  }
  attr {
    key: "_class"
    value {
      list {
        s: "loc:@loss/Probabilities_loss/Sum"
      }
    }
  }
}
node {
  name: "training/Adam/gradients/loss/Probabilities_loss/Sum_grad/mod"
  op: "FloorMod"
  input: "training/Adam/gradients/loss/Probabilities_loss/Sum_grad/add"
  input: "training/Adam/gradients/loss/Probabilities_loss/Sum_grad/Size"
  attr {
    key: "T"
    value {
      type: DT_INT32
    }
  }
  attr {
    key: "_class"
    value {
      list {
        s: "loc:@loss/Probabilities_loss/Sum"
      }
    }
  }
}
node {
  name: "training/Adam/gradients/loss/Probabilities_loss/Sum_grad/Shape_1"
  op: "Const"
  attr {
    key: "_class"
    value {
      list {
        s: "loc:@loss/Probabilities_loss/Sum"
      }
    }
  }
  attr {
    key: "dtype"
    value {
      type: DT_INT32
    }
  }
  attr {
    key: "value"
    value {
      tensor {
        dtype: DT_INT32
        tensor_shape {
          dim {
          }
        }
      }
    }
  }
}
node {
  name: "training/Adam/gradients/loss/Probabilities_loss/Sum_grad/range/start"
  op: "Const"
  attr {
    key: "_class"
    value {
      list {
        s: "loc:@loss/Probabilities_loss/Sum"
      }
    }
  }
  attr {
    key: "dtype"
    value {
      type: DT_INT32
    }
  }
  attr {
    key: "value"
    value {
      tensor {
        dtype: DT_INT32
        tensor_shape {
        }
        int_val: 0
      }
    }
  }
}
node {
  name: "training/Adam/gradients/loss/Probabilities_loss/Sum_grad/range/delta"
  op: "Const"
  attr {
    key: "_class"
    value {
      list {
        s: "loc:@loss/Probabilities_loss/Sum"
      }
    }
  }
  attr {
    key: "dtype"
    value {
      type: DT_INT32
    }
  }
  attr {
    key: "value"
    value {
      tensor {
        dtype: DT_INT32
        tensor_shape {
        }
        int_val: 1
      }
    }
  }
}
node {
  name: "training/Adam/gradients/loss/Probabilities_loss/Sum_grad/range"
  op: "Range"
  input: "training/Adam/gradients/loss/Probabilities_loss/Sum_grad/range/start"
  input: "training/Adam/gradients/loss/Probabilities_loss/Sum_grad/Size"
  input: "training/Adam/gradients/loss/Probabilities_loss/Sum_grad/range/delta"
  attr {
    key: "Tidx"
    value {
      type: DT_INT32
    }
  }
  attr {
    key: "_class"
    value {
      list {
        s: "loc:@loss/Probabilities_loss/Sum"
      }
    }
  }
}
node {
  name: "training/Adam/gradients/loss/Probabilities_loss/Sum_grad/Fill/value"
  op: "Const"
  attr {
    key: "_class"
    value {
      list {
        s: "loc:@loss/Probabilities_loss/Sum"
      }
    }
  }
  attr {
    key: "dtype"
    value {
      type: DT_INT32
    }
  }
  attr {
    key: "value"
    value {
      tensor {
        dtype: DT_INT32
        tensor_shape {
        }
        int_val: 1
      }
    }
  }
}
node {
  name: "training/Adam/gradients/loss/Probabilities_loss/Sum_grad/Fill"
  op: "Fill"
  input: "training/Adam/gradients/loss/Probabilities_loss/Sum_grad/Shape_1"
  input: "training/Adam/gradients/loss/Probabilities_loss/Sum_grad/Fill/value"
  attr {
    key: "T"
    value {
      type: DT_INT32
    }
  }
  attr {
    key: "_class"
    value {
      list {
        s: "loc:@loss/Probabilities_loss/Sum"
      }
    }
  }
  attr {
    key: "index_type"
    value {
      type: DT_INT32
    }
  }
}
node {
  name: "training/Adam/gradients/loss/Probabilities_loss/Sum_grad/DynamicStitch"
  op: "DynamicStitch"
  input: "training/Adam/gradients/loss/Probabilities_loss/Sum_grad/range"
  input: "training/Adam/gradients/loss/Probabilities_loss/Sum_grad/mod"
  input: "training/Adam/gradients/loss/Probabilities_loss/Sum_grad/Shape"
  input: "training/Adam/gradients/loss/Probabilities_loss/Sum_grad/Fill"
  attr {
    key: "N"
    value {
      i: 2
    }
  }
  attr {
    key: "T"
    value {
      type: DT_INT32
    }
  }
  attr {
    key: "_class"
    value {
      list {
        s: "loc:@loss/Probabilities_loss/Sum"
      }
    }
  }
}
node {
  name: "training/Adam/gradients/loss/Probabilities_loss/Sum_grad/Maximum/y"
  op: "Const"
  attr {
    key: "_class"
    value {
      list {
        s: "loc:@loss/Probabilities_loss/Sum"
      }
    }
  }
  attr {
    key: "dtype"
    value {
      type: DT_INT32
    }
  }
  attr {
    key: "value"
    value {
      tensor {
        dtype: DT_INT32
        tensor_shape {
        }
        int_val: 1
      }
    }
  }
}
node {
  name: "training/Adam/gradients/loss/Probabilities_loss/Sum_grad/Maximum"
  op: "Maximum"
  input: "training/Adam/gradients/loss/Probabilities_loss/Sum_grad/DynamicStitch"
  input: "training/Adam/gradients/loss/Probabilities_loss/Sum_grad/Maximum/y"
  attr {
    key: "T"
    value {
      type: DT_INT32
    }
  }
  attr {
    key: "_class"
    value {
      list {
        s: "loc:@loss/Probabilities_loss/Sum"
      }
    }
  }
}
node {
  name: "training/Adam/gradients/loss/Probabilities_loss/Sum_grad/floordiv"
  op: "FloorDiv"
  input: "training/Adam/gradients/loss/Probabilities_loss/Sum_grad/Shape"
  input: "training/Adam/gradients/loss/Probabilities_loss/Sum_grad/Maximum"
  attr {
    key: "T"
    value {
      type: DT_INT32
    }
  }
  attr {
    key: "_class"
    value {
      list {
        s: "loc:@loss/Probabilities_loss/Sum"
      }
    }
  }
}
node {
  name: "training/Adam/gradients/loss/Probabilities_loss/Sum_grad/Reshape"
  op: "Reshape"
  input: "training/Adam/gradients/loss/Probabilities_loss/truediv_grad/Reshape_1"
  input: "training/Adam/gradients/loss/Probabilities_loss/Sum_grad/DynamicStitch"
  attr {
    key: "T"
    value {
      type: DT_FLOAT
    }
  }
  attr {
    key: "Tshape"
    value {
      type: DT_INT32
    }
  }
  attr {
    key: "_class"
    value {
      list {
        s: "loc:@loss/Probabilities_loss/Sum"
      }
    }
  }
}
node {
  name: "training/Adam/gradients/loss/Probabilities_loss/Sum_grad/Tile"
  op: "Tile"
  input: "training/Adam/gradients/loss/Probabilities_loss/Sum_grad/Reshape"
  input: "training/Adam/gradients/loss/Probabilities_loss/Sum_grad/floordiv"
  attr {
    key: "T"
    value {
      type: DT_FLOAT
    }
  }
  attr {
    key: "Tmultiples"
    value {
      type: DT_INT32
    }
  }
  attr {
    key: "_class"
    value {
      list {
        s: "loc:@loss/Probabilities_loss/Sum"
      }
    }
  }
}
node {
  name: "training/Adam/gradients/AddN"
  op: "AddN"
  input: "training/Adam/gradients/loss/Probabilities_loss/truediv_grad/Reshape"
  input: "training/Adam/gradients/loss/Probabilities_loss/Sum_grad/Tile"
  attr {
    key: "N"
    value {
      i: 2
    }
  }
  attr {
    key: "T"
    value {
      type: DT_FLOAT
    }
  }
  attr {
    key: "_class"
    value {
      list {
        s: "loc:@loss/Probabilities_loss/truediv"
      }
    }
  }
}
node {
  name: "training/Adam/gradients/Probabilities/Softmax_grad/mul"
  op: "Mul"
  input: "training/Adam/gradients/AddN"
  input: "Probabilities/Softmax"
  attr {
    key: "T"
    value {
      type: DT_FLOAT
    }
  }
  attr {
    key: "_class"
    value {
      list {
        s: "loc:@Probabilities/Softmax"
      }
    }
  }
}
node {
  name: "training/Adam/gradients/Probabilities/Softmax_grad/Sum/reduction_indices"
  op: "Const"
  attr {
    key: "_class"
    value {
      list {
        s: "loc:@Probabilities/Softmax"
      }
    }
  }
  attr {
    key: "dtype"
    value {
      type: DT_INT32
    }
  }
  attr {
    key: "value"
    value {
      tensor {
        dtype: DT_INT32
        tensor_shape {
          dim {
            size: 1
          }
        }
        int_val: 1
      }
    }
  }
}
node {
  name: "training/Adam/gradients/Probabilities/Softmax_grad/Sum"
  op: "Sum"
  input: "training/Adam/gradients/Probabilities/Softmax_grad/mul"
  input: "training/Adam/gradients/Probabilities/Softmax_grad/Sum/reduction_indices"
  attr {
    key: "T"
    value {
      type: DT_FLOAT
    }
  }
  attr {
    key: "Tidx"
    value {
      type: DT_INT32
    }
  }
  attr {
    key: "_class"
    value {
      list {
        s: "loc:@Probabilities/Softmax"
      }
    }
  }
  attr {
    key: "keep_dims"
    value {
      b: false
    }
  }
}
node {
  name: "training/Adam/gradients/Probabilities/Softmax_grad/Reshape/shape"
  op: "Const"
  attr {
    key: "_class"
    value {
      list {
        s: "loc:@Probabilities/Softmax"
      }
    }
  }
  attr {
    key: "dtype"
    value {
      type: DT_INT32
    }
  }
  attr {
    key: "value"
    value {
      tensor {
        dtype: DT_INT32
        tensor_shape {
          dim {
            size: 2
          }
        }
        tensor_content: "\377\377\377\377\001\000\000\000"
      }
    }
  }
}
node {
  name: "training/Adam/gradients/Probabilities/Softmax_grad/Reshape"
  op: "Reshape"
  input: "training/Adam/gradients/Probabilities/Softmax_grad/Sum"
  input: "training/Adam/gradients/Probabilities/Softmax_grad/Reshape/shape"
  attr {
    key: "T"
    value {
      type: DT_FLOAT
    }
  }
  attr {
    key: "Tshape"
    value {
      type: DT_INT32
    }
  }
  attr {
    key: "_class"
    value {
      list {
        s: "loc:@Probabilities/Softmax"
      }
    }
  }
}
node {
  name: "training/Adam/gradients/Probabilities/Softmax_grad/sub"
  op: "Sub"
  input: "training/Adam/gradients/AddN"
  input: "training/Adam/gradients/Probabilities/Softmax_grad/Reshape"
  attr {
    key: "T"
    value {
      type: DT_FLOAT
    }
  }
  attr {
    key: "_class"
    value {
      list {
        s: "loc:@Probabilities/Softmax"
      }
    }
  }
}
node {
  name: "training/Adam/gradients/Probabilities/Softmax_grad/mul_1"
  op: "Mul"
  input: "training/Adam/gradients/Probabilities/Softmax_grad/sub"
  input: "Probabilities/Softmax"
  attr {
    key: "T"
    value {
      type: DT_FLOAT
    }
  }
  attr {
    key: "_class"
    value {
      list {
        s: "loc:@Probabilities/Softmax"
      }
    }
  }
}
node {
  name: "training/Adam/gradients/Probabilities/BiasAdd_grad/BiasAddGrad"
  op: "BiasAddGrad"
  input: "training/Adam/gradients/Probabilities/Softmax_grad/mul_1"
  attr {
    key: "T"
    value {
      type: DT_FLOAT
    }
  }
  attr {
    key: "_class"
    value {
      list {
        s: "loc:@Probabilities/BiasAdd"
      }
    }
  }
  attr {
    key: "data_format"
    value {
      s: "NHWC"
    }
  }
}
node {
  name: "training/Adam/gradients/Probabilities/MatMul_grad/MatMul"
  op: "MatMul"
  input: "training/Adam/gradients/Probabilities/Softmax_grad/mul_1"
  input: "Probabilities/kernel/read"
  attr {
    key: "T"
    value {
      type: DT_FLOAT
    }
  }
  attr {
    key: "_class"
    value {
      list {
        s: "loc:@Probabilities/MatMul"
      }
    }
  }
  attr {
    key: "transpose_a"
    value {
      b: false
    }
  }
  attr {
    key: "transpose_b"
    value {
      b: true
    }
  }
}
node {
  name: "training/Adam/gradients/Probabilities/MatMul_grad/MatMul_1"
  op: "MatMul"
  input: "dense_1/Relu"
  input: "training/Adam/gradients/Probabilities/Softmax_grad/mul_1"
  attr {
    key: "T"
    value {
      type: DT_FLOAT
    }
  }
  attr {
    key: "_class"
    value {
      list {
        s: "loc:@Probabilities/MatMul"
      }
    }
  }
  attr {
    key: "transpose_a"
    value {
      b: true
    }
  }
  attr {
    key: "transpose_b"
    value {
      b: false
    }
  }
}
node {
  name: "training/Adam/gradients/dense_1/Relu_grad/ReluGrad"
  op: "ReluGrad"
  input: "training/Adam/gradients/Probabilities/MatMul_grad/MatMul"
  input: "dense_1/Relu"
  attr {
    key: "T"
    value {
      type: DT_FLOAT
    }
  }
  attr {
    key: "_class"
    value {
      list {
        s: "loc:@dense_1/Relu"
      }
    }
  }
}
node {
  name: "training/Adam/gradients/dense_1/BiasAdd_grad/BiasAddGrad"
  op: "BiasAddGrad"
  input: "training/Adam/gradients/dense_1/Relu_grad/ReluGrad"
  attr {
    key: "T"
    value {
      type: DT_FLOAT
    }
  }
  attr {
    key: "_class"
    value {
      list {
        s: "loc:@dense_1/BiasAdd"
      }
    }
  }
  attr {
    key: "data_format"
    value {
      s: "NHWC"
    }
  }
}
node {
  name: "training/Adam/gradients/dense_1/MatMul_grad/MatMul"
  op: "MatMul"
  input: "training/Adam/gradients/dense_1/Relu_grad/ReluGrad"
  input: "dense_1/kernel/read"
  attr {
    key: "T"
    value {
      type: DT_FLOAT
    }
  }
  attr {
    key: "_class"
    value {
      list {
        s: "loc:@dense_1/MatMul"
      }
    }
  }
  attr {
    key: "transpose_a"
    value {
      b: false
    }
  }
  attr {
    key: "transpose_b"
    value {
      b: true
    }
  }
}
node {
  name: "training/Adam/gradients/dense_1/MatMul_grad/MatMul_1"
  op: "MatMul"
  input: "flatten_1/Reshape"
  input: "training/Adam/gradients/dense_1/Relu_grad/ReluGrad"
  attr {
    key: "T"
    value {
      type: DT_FLOAT
    }
  }
  attr {
    key: "_class"
    value {
      list {
        s: "loc:@dense_1/MatMul"
      }
    }
  }
  attr {
    key: "transpose_a"
    value {
      b: true
    }
  }
  attr {
    key: "transpose_b"
    value {
      b: false
    }
  }
}
node {
  name: "training/Adam/gradients/flatten_1/Reshape_grad/Shape"
  op: "Shape"
  input: "max_pooling2d_2/MaxPool"
  attr {
    key: "T"
    value {
      type: DT_FLOAT
    }
  }
  attr {
    key: "_class"
    value {
      list {
        s: "loc:@flatten_1/Reshape"
      }
    }
  }
  attr {
    key: "out_type"
    value {
      type: DT_INT32
    }
  }
}
node {
  name: "training/Adam/gradients/flatten_1/Reshape_grad/Reshape"
  op: "Reshape"
  input: "training/Adam/gradients/dense_1/MatMul_grad/MatMul"
  input: "training/Adam/gradients/flatten_1/Reshape_grad/Shape"
  attr {
    key: "T"
    value {
      type: DT_FLOAT
    }
  }
  attr {
    key: "Tshape"
    value {
      type: DT_INT32
    }
  }
  attr {
    key: "_class"
    value {
      list {
        s: "loc:@flatten_1/Reshape"
      }
    }
  }
}
node {
  name: "training/Adam/gradients/max_pooling2d_2/MaxPool_grad/MaxPoolGrad"
  op: "MaxPoolGrad"
  input: "SecondConv2DLayer/Relu"
  input: "max_pooling2d_2/MaxPool"
  input: "training/Adam/gradients/flatten_1/Reshape_grad/Reshape"
  attr {
    key: "T"
    value {
      type: DT_FLOAT
    }
  }
  attr {
    key: "_class"
    value {
      list {
        s: "loc:@max_pooling2d_2/MaxPool"
      }
    }
  }
  attr {
    key: "data_format"
    value {
      s: "NHWC"
    }
  }
  attr {
    key: "ksize"
    value {
      list {
        i: 1
        i: 2
        i: 2
        i: 1
      }
    }
  }
  attr {
    key: "padding"
    value {
      s: "VALID"
    }
  }
  attr {
    key: "strides"
    value {
      list {
        i: 1
        i: 2
        i: 2
        i: 1
      }
    }
  }
}
node {
  name: "training/Adam/gradients/SecondConv2DLayer/Relu_grad/ReluGrad"
  op: "ReluGrad"
  input: "training/Adam/gradients/max_pooling2d_2/MaxPool_grad/MaxPoolGrad"
  input: "SecondConv2DLayer/Relu"
  attr {
    key: "T"
    value {
      type: DT_FLOAT
    }
  }
  attr {
    key: "_class"
    value {
      list {
        s: "loc:@SecondConv2DLayer/Relu"
      }
    }
  }
}
node {
  name: "training/Adam/gradients/SecondConv2DLayer/BiasAdd_grad/BiasAddGrad"
  op: "BiasAddGrad"
  input: "training/Adam/gradients/SecondConv2DLayer/Relu_grad/ReluGrad"
  attr {
    key: "T"
    value {
      type: DT_FLOAT
    }
  }
  attr {
    key: "_class"
    value {
      list {
        s: "loc:@SecondConv2DLayer/BiasAdd"
      }
    }
  }
  attr {
    key: "data_format"
    value {
      s: "NHWC"
    }
  }
}
node {
  name: "training/Adam/gradients/SecondConv2DLayer/convolution_grad/ShapeN"
  op: "ShapeN"
  input: "max_pooling2d_1/MaxPool"
  input: "SecondConv2DLayer/kernel/read"
  attr {
    key: "N"
    value {
      i: 2
    }
  }
  attr {
    key: "T"
    value {
      type: DT_FLOAT
    }
  }
  attr {
    key: "_class"
    value {
      list {
        s: "loc:@SecondConv2DLayer/convolution"
      }
    }
  }
  attr {
    key: "out_type"
    value {
      type: DT_INT32
    }
  }
}
node {
  name: "training/Adam/gradients/SecondConv2DLayer/convolution_grad/Const"
  op: "Const"
  attr {
    key: "_class"
    value {
      list {
        s: "loc:@SecondConv2DLayer/convolution"
      }
    }
  }
  attr {
    key: "dtype"
    value {
      type: DT_INT32
    }
  }
  attr {
    key: "value"
    value {
      tensor {
        dtype: DT_INT32
        tensor_shape {
          dim {
            size: 4
          }
        }
        tensor_content: "\003\000\000\000\003\000\000\000 \000\000\000 \000\000\000"
      }
    }
  }
}
node {
  name: "training/Adam/gradients/SecondConv2DLayer/convolution_grad/Conv2DBackpropInput"
  op: "Conv2DBackpropInput"
  input: "training/Adam/gradients/SecondConv2DLayer/convolution_grad/ShapeN"
  input: "SecondConv2DLayer/kernel/read"
  input: "training/Adam/gradients/SecondConv2DLayer/Relu_grad/ReluGrad"
  attr {
    key: "T"
    value {
      type: DT_FLOAT
    }
  }
  attr {
    key: "_class"
    value {
      list {
        s: "loc:@SecondConv2DLayer/convolution"
      }
    }
  }
  attr {
    key: "data_format"
    value {
      s: "NHWC"
    }
  }
  attr {
    key: "dilations"
    value {
      list {
        i: 1
        i: 1
        i: 1
        i: 1
      }
    }
  }
  attr {
    key: "padding"
    value {
      s: "VALID"
    }
  }
  attr {
    key: "strides"
    value {
      list {
        i: 1
        i: 1
        i: 1
        i: 1
      }
    }
  }
  attr {
    key: "use_cudnn_on_gpu"
    value {
      b: true
    }
  }
}
node {
  name: "training/Adam/gradients/SecondConv2DLayer/convolution_grad/Conv2DBackpropFilter"
  op: "Conv2DBackpropFilter"
  input: "max_pooling2d_1/MaxPool"
  input: "training/Adam/gradients/SecondConv2DLayer/convolution_grad/Const"
  input: "training/Adam/gradients/SecondConv2DLayer/Relu_grad/ReluGrad"
  attr {
    key: "T"
    value {
      type: DT_FLOAT
    }
  }
  attr {
    key: "_class"
    value {
      list {
        s: "loc:@SecondConv2DLayer/convolution"
      }
    }
  }
  attr {
    key: "data_format"
    value {
      s: "NHWC"
    }
  }
  attr {
    key: "dilations"
    value {
      list {
        i: 1
        i: 1
        i: 1
        i: 1
      }
    }
  }
  attr {
    key: "padding"
    value {
      s: "VALID"
    }
  }
  attr {
    key: "strides"
    value {
      list {
        i: 1
        i: 1
        i: 1
        i: 1
      }
    }
  }
  attr {
    key: "use_cudnn_on_gpu"
    value {
      b: true
    }
  }
}
node {
  name: "training/Adam/gradients/max_pooling2d_1/MaxPool_grad/MaxPoolGrad"
  op: "MaxPoolGrad"
  input: "FirstConv2DLayer/Relu"
  input: "max_pooling2d_1/MaxPool"
  input: "training/Adam/gradients/SecondConv2DLayer/convolution_grad/Conv2DBackpropInput"
  attr {
    key: "T"
    value {
      type: DT_FLOAT
    }
  }
  attr {
    key: "_class"
    value {
      list {
        s: "loc:@max_pooling2d_1/MaxPool"
      }
    }
  }
  attr {
    key: "data_format"
    value {
      s: "NHWC"
    }
  }
  attr {
    key: "ksize"
    value {
      list {
        i: 1
        i: 2
        i: 2
        i: 1
      }
    }
  }
  attr {
    key: "padding"
    value {
      s: "VALID"
    }
  }
  attr {
    key: "strides"
    value {
      list {
        i: 1
        i: 2
        i: 2
        i: 1
      }
    }
  }
}
node {
  name: "training/Adam/gradients/FirstConv2DLayer/Relu_grad/ReluGrad"
  op: "ReluGrad"
  input: "training/Adam/gradients/max_pooling2d_1/MaxPool_grad/MaxPoolGrad"
  input: "FirstConv2DLayer/Relu"
  attr {
    key: "T"
    value {
      type: DT_FLOAT
    }
  }
  attr {
    key: "_class"
    value {
      list {
        s: "loc:@FirstConv2DLayer/Relu"
      }
    }
  }
}
node {
  name: "training/Adam/gradients/FirstConv2DLayer/BiasAdd_grad/BiasAddGrad"
  op: "BiasAddGrad"
  input: "training/Adam/gradients/FirstConv2DLayer/Relu_grad/ReluGrad"
  attr {
    key: "T"
    value {
      type: DT_FLOAT
    }
  }
  attr {
    key: "_class"
    value {
      list {
        s: "loc:@FirstConv2DLayer/BiasAdd"
      }
    }
  }
  attr {
    key: "data_format"
    value {
      s: "NHWC"
    }
  }
}
node {
  name: "training/Adam/gradients/FirstConv2DLayer/convolution_grad/ShapeN"
  op: "ShapeN"
  input: "FirstConv2DLayer_input"
  input: "FirstConv2DLayer/kernel/read"
  attr {
    key: "N"
    value {
      i: 2
    }
  }
  attr {
    key: "T"
    value {
      type: DT_FLOAT
    }
  }
  attr {
    key: "_class"
    value {
      list {
        s: "loc:@FirstConv2DLayer/convolution"
      }
    }
  }
  attr {
    key: "out_type"
    value {
      type: DT_INT32
    }
  }
}
node {
  name: "training/Adam/gradients/FirstConv2DLayer/convolution_grad/Const"
  op: "Const"
  attr {
    key: "_class"
    value {
      list {
        s: "loc:@FirstConv2DLayer/convolution"
      }
    }
  }
  attr {
    key: "dtype"
    value {
      type: DT_INT32
    }
  }
  attr {
    key: "value"
    value {
      tensor {
        dtype: DT_INT32
        tensor_shape {
          dim {
            size: 4
          }
        }
        tensor_content: "\003\000\000\000\003\000\000\000\003\000\000\000 \000\000\000"
      }
    }
  }
}
node {
  name: "training/Adam/gradients/FirstConv2DLayer/convolution_grad/Conv2DBackpropInput"
  op: "Conv2DBackpropInput"
  input: "training/Adam/gradients/FirstConv2DLayer/convolution_grad/ShapeN"
  input: "FirstConv2DLayer/kernel/read"
  input: "training/Adam/gradients/FirstConv2DLayer/Relu_grad/ReluGrad"
  attr {
    key: "T"
    value {
      type: DT_FLOAT
    }
  }
  attr {
    key: "_class"
    value {
      list {
        s: "loc:@FirstConv2DLayer/convolution"
      }
    }
  }
  attr {
    key: "data_format"
    value {
      s: "NHWC"
    }
  }
  attr {
    key: "dilations"
    value {
      list {
        i: 1
        i: 1
        i: 1
        i: 1
      }
    }
  }
  attr {
    key: "padding"
    value {
      s: "VALID"
    }
  }
  attr {
    key: "strides"
    value {
      list {
        i: 1
        i: 1
        i: 1
        i: 1
      }
    }
  }
  attr {
    key: "use_cudnn_on_gpu"
    value {
      b: true
    }
  }
}
node {
  name: "training/Adam/gradients/FirstConv2DLayer/convolution_grad/Conv2DBackpropFilter"
  op: "Conv2DBackpropFilter"
  input: "FirstConv2DLayer_input"
  input: "training/Adam/gradients/FirstConv2DLayer/convolution_grad/Const"
  input: "training/Adam/gradients/FirstConv2DLayer/Relu_grad/ReluGrad"
  attr {
    key: "T"
    value {
      type: DT_FLOAT
    }
  }
  attr {
    key: "_class"
    value {
      list {
        s: "loc:@FirstConv2DLayer/convolution"
      }
    }
  }
  attr {
    key: "data_format"
    value {
      s: "NHWC"
    }
  }
  attr {
    key: "dilations"
    value {
      list {
        i: 1
        i: 1
        i: 1
        i: 1
      }
    }
  }
  attr {
    key: "padding"
    value {
      s: "VALID"
    }
  }
  attr {
    key: "strides"
    value {
      list {
        i: 1
        i: 1
        i: 1
        i: 1
      }
    }
  }
  attr {
    key: "use_cudnn_on_gpu"
    value {
      b: true
    }
  }
}
node {
  name: "training/Adam/AssignAdd/value"
  op: "Const"
  attr {
    key: "dtype"
    value {
      type: DT_INT64
    }
  }
  attr {
    key: "value"
    value {
      tensor {
        dtype: DT_INT64
        tensor_shape {
        }
        int64_val: 1
      }
    }
  }
}
node {
  name: "training/Adam/AssignAdd"
  op: "AssignAdd"
  input: "Adam/iterations"
  input: "training/Adam/AssignAdd/value"
  attr {
    key: "T"
    value {
      type: DT_INT64
    }
  }
  attr {
    key: "_class"
    value {
      list {
        s: "loc:@Adam/iterations"
      }
    }
  }
  attr {
    key: "use_locking"
    value {
      b: false
    }
  }
}
node {
  name: "training/Adam/Cast"
  op: "Cast"
  input: "Adam/iterations/read"
  attr {
    key: "DstT"
    value {
      type: DT_FLOAT
    }
  }
  attr {
    key: "SrcT"
    value {
      type: DT_INT64
    }
  }
}
node {
  name: "training/Adam/add/y"
  op: "Const"
  attr {
    key: "dtype"
    value {
      type: DT_FLOAT
    }
  }
  attr {
    key: "value"
    value {
      tensor {
        dtype: DT_FLOAT
        tensor_shape {
        }
        float_val: 1.0
      }
    }
  }
}
node {
  name: "training/Adam/add"
  op: "Add"
  input: "training/Adam/Cast"
  input: "training/Adam/add/y"
  attr {
    key: "T"
    value {
      type: DT_FLOAT
    }
  }
}
node {
  name: "training/Adam/Pow"
  op: "Pow"
  input: "Adam/beta_2/read"
  input: "training/Adam/add"
  attr {
    key: "T"
    value {
      type: DT_FLOAT
    }
  }
}
node {
  name: "training/Adam/sub/x"
  op: "Const"
  attr {
    key: "dtype"
    value {
      type: DT_FLOAT
    }
  }
  attr {
    key: "value"
    value {
      tensor {
        dtype: DT_FLOAT
        tensor_shape {
        }
        float_val: 1.0
      }
    }
  }
}
node {
  name: "training/Adam/sub"
  op: "Sub"
  input: "training/Adam/sub/x"
  input: "training/Adam/Pow"
  attr {
    key: "T"
    value {
      type: DT_FLOAT
    }
  }
}
node {
  name: "training/Adam/Const"
  op: "Const"
  attr {
    key: "dtype"
    value {
      type: DT_FLOAT
    }
  }
  attr {
    key: "value"
    value {
      tensor {
        dtype: DT_FLOAT
        tensor_shape {
        }
        float_val: 0.0
      }
    }
  }
}
node {
  name: "training/Adam/Const_1"
  op: "Const"
  attr {
    key: "dtype"
    value {
      type: DT_FLOAT
    }
  }
  attr {
    key: "value"
    value {
      tensor {
        dtype: DT_FLOAT
        tensor_shape {
        }
        float_val: inf
      }
    }
  }
}
node {
  name: "training/Adam/clip_by_value/Minimum"
  op: "Minimum"
  input: "training/Adam/sub"
  input: "training/Adam/Const_1"
  attr {
    key: "T"
    value {
      type: DT_FLOAT
    }
  }
}
node {
  name: "training/Adam/clip_by_value"
  op: "Maximum"
  input: "training/Adam/clip_by_value/Minimum"
  input: "training/Adam/Const"
  attr {
    key: "T"
    value {
      type: DT_FLOAT
    }
  }
}
node {
  name: "training/Adam/Sqrt"
  op: "Sqrt"
  input: "training/Adam/clip_by_value"
  attr {
    key: "T"
    value {
      type: DT_FLOAT
    }
  }
}
node {
  name: "training/Adam/Pow_1"
  op: "Pow"
  input: "Adam/beta_1/read"
  input: "training/Adam/add"
  attr {
    key: "T"
    value {
      type: DT_FLOAT
    }
  }
}
node {
  name: "training/Adam/sub_1/x"
  op: "Const"
  attr {
    key: "dtype"
    value {
      type: DT_FLOAT
    }
  }
  attr {
    key: "value"
    value {
      tensor {
        dtype: DT_FLOAT
        tensor_shape {
        }
        float_val: 1.0
      }
    }
  }
}
node {
  name: "training/Adam/sub_1"
  op: "Sub"
  input: "training/Adam/sub_1/x"
  input: "training/Adam/Pow_1"
  attr {
    key: "T"
    value {
      type: DT_FLOAT
    }
  }
}
node {
  name: "training/Adam/truediv"
  op: "RealDiv"
  input: "training/Adam/Sqrt"
  input: "training/Adam/sub_1"
  attr {
    key: "T"
    value {
      type: DT_FLOAT
    }
  }
}
node {
  name: "training/Adam/mul"
  op: "Mul"
  input: "Adam/lr/read"
  input: "training/Adam/truediv"
  attr {
    key: "T"
    value {
      type: DT_FLOAT
    }
  }
}
node {
  name: "training/Adam/zeros/shape_as_tensor"
  op: "Const"
  attr {
    key: "dtype"
    value {
      type: DT_INT32
    }
  }
  attr {
    key: "value"
    value {
      tensor {
        dtype: DT_INT32
        tensor_shape {
          dim {
            size: 4
          }
        }
        tensor_content: "\003\000\000\000\003\000\000\000\003\000\000\000 \000\000\000"
      }
    }
  }
}
node {
  name: "training/Adam/zeros/Const"
  op: "Const"
  attr {
    key: "dtype"
    value {
      type: DT_FLOAT
    }
  }
  attr {
    key: "value"
    value {
      tensor {
        dtype: DT_FLOAT
        tensor_shape {
        }
        float_val: 0.0
      }
    }
  }
}
node {
  name: "training/Adam/zeros"
  op: "Fill"
  input: "training/Adam/zeros/shape_as_tensor"
  input: "training/Adam/zeros/Const"
  attr {
    key: "T"
    value {
      type: DT_FLOAT
    }
  }
  attr {
    key: "index_type"
    value {
      type: DT_INT32
    }
  }
}
node {
  name: "training/Adam/Variable"
  op: "VariableV2"
  attr {
    key: "container"
    value {
      s: ""
    }
  }
  attr {
    key: "dtype"
    value {
      type: DT_FLOAT
    }
  }
  attr {
    key: "shape"
    value {
      shape {
        dim {
          size: 3
        }
        dim {
          size: 3
        }
        dim {
          size: 3
        }
        dim {
          size: 32
        }
      }
    }
  }
  attr {
    key: "shared_name"
    value {
      s: ""
    }
  }
}
node {
  name: "training/Adam/Variable/Assign"
  op: "Assign"
  input: "training/Adam/Variable"
  input: "training/Adam/zeros"
  attr {
    key: "T"
    value {
      type: DT_FLOAT
    }
  }
  attr {
    key: "_class"
    value {
      list {
        s: "loc:@training/Adam/Variable"
      }
    }
  }
  attr {
    key: "use_locking"
    value {
      b: true
    }
  }
  attr {
    key: "validate_shape"
    value {
      b: true
    }
  }
}
node {
  name: "training/Adam/Variable/read"
  op: "Identity"
  input: "training/Adam/Variable"
  attr {
    key: "T"
    value {
      type: DT_FLOAT
    }
  }
  attr {
    key: "_class"
    value {
      list {
        s: "loc:@training/Adam/Variable"
      }
    }
  }
}
node {
  name: "training/Adam/zeros_1/shape_as_tensor"
  op: "Const"
  attr {
    key: "dtype"
    value {
      type: DT_INT32
    }
  }
  attr {
    key: "value"
    value {
      tensor {
        dtype: DT_INT32
        tensor_shape {
          dim {
            size: 1
          }
        }
        int_val: 32
      }
    }
  }
}
node {
  name: "training/Adam/zeros_1/Const"
  op: "Const"
  attr {
    key: "dtype"
    value {
      type: DT_FLOAT
    }
  }
  attr {
    key: "value"
    value {
      tensor {
        dtype: DT_FLOAT
        tensor_shape {
        }
        float_val: 0.0
      }
    }
  }
}
node {
  name: "training/Adam/zeros_1"
  op: "Fill"
  input: "training/Adam/zeros_1/shape_as_tensor"
  input: "training/Adam/zeros_1/Const"
  attr {
    key: "T"
    value {
      type: DT_FLOAT
    }
  }
  attr {
    key: "index_type"
    value {
      type: DT_INT32
    }
  }
}
node {
  name: "training/Adam/Variable_1"
  op: "VariableV2"
  attr {
    key: "container"
    value {
      s: ""
    }
  }
  attr {
    key: "dtype"
    value {
      type: DT_FLOAT
    }
  }
  attr {
    key: "shape"
    value {
      shape {
        dim {
          size: 32
        }
      }
    }
  }
  attr {
    key: "shared_name"
    value {
      s: ""
    }
  }
}
node {
  name: "training/Adam/Variable_1/Assign"
  op: "Assign"
  input: "training/Adam/Variable_1"
  input: "training/Adam/zeros_1"
  attr {
    key: "T"
    value {
      type: DT_FLOAT
    }
  }
  attr {
    key: "_class"
    value {
      list {
        s: "loc:@training/Adam/Variable_1"
      }
    }
  }
  attr {
    key: "use_locking"
    value {
      b: true
    }
  }
  attr {
    key: "validate_shape"
    value {
      b: true
    }
  }
}
node {
  name: "training/Adam/Variable_1/read"
  op: "Identity"
  input: "training/Adam/Variable_1"
  attr {
    key: "T"
    value {
      type: DT_FLOAT
    }
  }
  attr {
    key: "_class"
    value {
      list {
        s: "loc:@training/Adam/Variable_1"
      }
    }
  }
}
node {
  name: "training/Adam/zeros_2/shape_as_tensor"
  op: "Const"
  attr {
    key: "dtype"
    value {
      type: DT_INT32
    }
  }
  attr {
    key: "value"
    value {
      tensor {
        dtype: DT_INT32
        tensor_shape {
          dim {
            size: 4
          }
        }
        tensor_content: "\003\000\000\000\003\000\000\000 \000\000\000 \000\000\000"
      }
    }
  }
}
node {
  name: "training/Adam/zeros_2/Const"
  op: "Const"
  attr {
    key: "dtype"
    value {
      type: DT_FLOAT
    }
  }
  attr {
    key: "value"
    value {
      tensor {
        dtype: DT_FLOAT
        tensor_shape {
        }
        float_val: 0.0
      }
    }
  }
}
node {
  name: "training/Adam/zeros_2"
  op: "Fill"
  input: "training/Adam/zeros_2/shape_as_tensor"
  input: "training/Adam/zeros_2/Const"
  attr {
    key: "T"
    value {
      type: DT_FLOAT
    }
  }
  attr {
    key: "index_type"
    value {
      type: DT_INT32
    }
  }
}
node {
  name: "training/Adam/Variable_2"
  op: "VariableV2"
  attr {
    key: "container"
    value {
      s: ""
    }
  }
  attr {
    key: "dtype"
    value {
      type: DT_FLOAT
    }
  }
  attr {
    key: "shape"
    value {
      shape {
        dim {
          size: 3
        }
        dim {
          size: 3
        }
        dim {
          size: 32
        }
        dim {
          size: 32
        }
      }
    }
  }
  attr {
    key: "shared_name"
    value {
      s: ""
    }
  }
}
node {
  name: "training/Adam/Variable_2/Assign"
  op: "Assign"
  input: "training/Adam/Variable_2"
  input: "training/Adam/zeros_2"
  attr {
    key: "T"
    value {
      type: DT_FLOAT
    }
  }
  attr {
    key: "_class"
    value {
      list {
        s: "loc:@training/Adam/Variable_2"
      }
    }
  }
  attr {
    key: "use_locking"
    value {
      b: true
    }
  }
  attr {
    key: "validate_shape"
    value {
      b: true
    }
  }
}
node {
  name: "training/Adam/Variable_2/read"
  op: "Identity"
  input: "training/Adam/Variable_2"
  attr {
    key: "T"
    value {
      type: DT_FLOAT
    }
  }
  attr {
    key: "_class"
    value {
      list {
        s: "loc:@training/Adam/Variable_2"
      }
    }
  }
}
node {
  name: "training/Adam/zeros_3/shape_as_tensor"
  op: "Const"
  attr {
    key: "dtype"
    value {
      type: DT_INT32
    }
  }
  attr {
    key: "value"
    value {
      tensor {
        dtype: DT_INT32
        tensor_shape {
          dim {
            size: 1
          }
        }
        int_val: 32
      }
    }
  }
}
node {
  name: "training/Adam/zeros_3/Const"
  op: "Const"
  attr {
    key: "dtype"
    value {
      type: DT_FLOAT
    }
  }
  attr {
    key: "value"
    value {
      tensor {
        dtype: DT_FLOAT
        tensor_shape {
        }
        float_val: 0.0
      }
    }
  }
}
node {
  name: "training/Adam/zeros_3"
  op: "Fill"
  input: "training/Adam/zeros_3/shape_as_tensor"
  input: "training/Adam/zeros_3/Const"
  attr {
    key: "T"
    value {
      type: DT_FLOAT
    }
  }
  attr {
    key: "index_type"
    value {
      type: DT_INT32
    }
  }
}
node {
…
    key: "T"
    value {
      type: DT_FLOAT
    }
  }
}
node {
  name: "training/Adam/Const_10"
  op: "Const"
  attr {
    key: "dtype"
    value {
      type: DT_FLOAT
    }
  }
  attr {
    key: "value"
    value {
      tensor {
        dtype: DT_FLOAT
        tensor_shape {
        }
        float_val: 0.0
      }
    }
  }
}
node {
  name: "training/Adam/Const_11"
  op: "Const"
  attr {
    key: "dtype"
    value {
      type: DT_FLOAT
    }
  }
  attr {
    key: "value"
    value {
      tensor {
        dtype: DT_FLOAT
        tensor_shape {
        }
        float_val: inf
      }
    }
  }
}
node {
  name: "training/Adam/clip_by_value_5/Minimum"
  op: "Minimum"
  input: "training/Adam/add_14"
  input: "training/Adam/Const_11"
  attr {
    key: "T"
    value {
      type: DT_FLOAT
    }
  }
}
node {
  name: "training/Adam/clip_by_value_5"
  op: "Maximum"
  input: "training/Adam/clip_by_value_5/Minimum"
  input: "training/Adam/Const_10"
  attr {
    key: "T"
    value {
      type: DT_FLOAT
    }
  }
}
node {
  name: "training/Adam/Sqrt_5"
  op: "Sqrt"
  input: "training/Adam/clip_by_value_5"
  attr {
    key: "T"
    value {
      type: DT_FLOAT
    }
  }
}
node {
  name: "training/Adam/add_15/y"
  op: "Const"
  attr {
    key: "dtype"
    value {
      type: DT_FLOAT
    }
  }
  attr {
    key: "value"
    value {
      tensor {
        dtype: DT_FLOAT
        tensor_shape {
        }
        float_val: 1.0000000116860974e-07
      }
    }
  }
}
node {
  name: "training/Adam/add_15"
  op: "Add"
  input: "training/Adam/Sqrt_5"
  input: "training/Adam/add_15/y"
  attr {
    key: "T"
    value {
      type: DT_FLOAT
    }
  }
}
node {
  name: "training/Adam/truediv_5"
  op: "RealDiv"
  input: "training/Adam/mul_25"
  input: "training/Adam/add_15"
  attr {
    key: "T"
    value {
      type: DT_FLOAT
    }
  }
}
node {
  name: "training/Adam/sub_16"
  op: "Sub"
  input: "dense_1/kernel/read"
  input: "training/Adam/truediv_5"
  attr {
    key: "T"
    value {
      type: DT_FLOAT
    }
  }
}
node {
  name: "training/Adam/Assign_12"
  op: "Assign"
  input: "training/Adam/Variable_4"
  input: "training/Adam/add_13"
  attr {
    key: "T"
    value {
      type: DT_FLOAT
    }
  }
  attr {
    key: "_class"
    value {
      list {
        s: "loc:@training/Adam/Variable_4"
      }
    }
  }
  attr {
    key: "use_locking"
    value {
      b: true
    }
  }
  attr {
    key: "validate_shape"
    value {
      b: true
    }
  }
}
node {
  name: "training/Adam/Assign_13"
  op: "Assign"
  input: "training/Adam/Variable_12"
  input: "training/Adam/add_14"
  attr {
    key: "T"
    value {
      type: DT_FLOAT
    }
  }
  attr {
    key: "_class"
    value {
      list {
        s: "loc:@training/Adam/Variable_12"
      }
    }
  }
  attr {
    key: "use_locking"
    value {
      b: true
    }
  }
  attr {
    key: "validate_shape"
    value {
      b: true
    }
  }
}
node {
  name: "training/Adam/Assign_14"
  op: "Assign"
  input: "dense_1/kernel"
  input: "training/Adam/sub_16"
  attr {
    key: "T"
    value {
      type: DT_FLOAT
    }
  }
  attr {
    key: "_class"
    value {
      list {
        s: "loc:@dense_1/kernel"
      }
    }
  }
  attr {
    key: "use_locking"
    value {
      b: true
    }
  }
  attr {
    key: "validate_shape"
    value {
      b: true
    }
  }
}
node {
  name: "training/Adam/mul_26"
  op: "Mul"
  input: "Adam/beta_1/read"
  input: "training/Adam/Variable_5/read"
  attr {
    key: "T"
    value {
      type: DT_FLOAT
    }
  }
}
node {
  name: "training/Adam/sub_17/x"
  op: "Const"
  attr {
    key: "dtype"
    value {
      type: DT_FLOAT
    }
  }
  attr {
    key: "value"
    value {
      tensor {
        dtype: DT_FLOAT
        tensor_shape {
        }
        float_val: 1.0
      }
    }
  }
}
node {
  name: "training/Adam/sub_17"
  op: "Sub"
  input: "training/Adam/sub_17/x"
  input: "Adam/beta_1/read"
  attr {
    key: "T"
    value {
      type: DT_FLOAT
    }
  }
}
node {
  name: "training/Adam/mul_27"
  op: "Mul"
  input: "training/Adam/sub_17"
  input: "training/Adam/gradients/dense_1/BiasAdd_grad/BiasAddGrad"
  attr {
    key: "T"
    value {
      type: DT_FLOAT
    }
  }
}
node {
  name: "training/Adam/add_16"
  op: "Add"
  input: "training/Adam/mul_26"
  input: "training/Adam/mul_27"
  attr {
    key: "T"
    value {
      type: DT_FLOAT
    }
  }
}
node {
  name: "training/Adam/mul_28"
  op: "Mul"
  input: "Adam/beta_2/read"
  input: "training/Adam/Variable_13/read"
  attr {
    key: "T"
    value {
      type: DT_FLOAT
    }
  }
}
node {
  name: "training/Adam/sub_18/x"
  op: "Const"
  attr {
    key: "dtype"
    value {
      type: DT_FLOAT
    }
  }
  attr {
    key: "value"
    value {
      tensor {
        dtype: DT_FLOAT
        tensor_shape {
        }
        float_val: 1.0
      }
    }
  }
}
node {
  name: "training/Adam/sub_18"
  op: "Sub"
  input: "training/Adam/sub_18/x"
  input: "Adam/beta_2/read"
  attr {
    key: "T"
    value {
      type: DT_FLOAT
    }
  }
}
node {
  name: "training/Adam/Square_5"
  op: "Square"
  input: "training/Adam/gradients/dense_1/BiasAdd_grad/BiasAddGrad"
  attr {
    key: "T"
    value {
      type: DT_FLOAT
    }
  }
}
node {
  name: "training/Adam/mul_29"
  op: "Mul"
  input: "training/Adam/sub_18"
  input: "training/Adam/Square_5"
  attr {
    key: "T"
    value {
      type: DT_FLOAT
    }
  }
}
node {
  name: "training/Adam/add_17"
  op: "Add"
  input: "training/Adam/mul_28"
  input: "training/Adam/mul_29"
  attr {
    key: "T"
    value {
      type: DT_FLOAT
    }
  }
}
node {
  name: "training/Adam/mul_30"
  op: "Mul"
  input: "training/Adam/mul"
  input: "training/Adam/add_16"
  attr {
    key: "T"
    value {
      type: DT_FLOAT
    }
  }
}
node {
  name: "training/Adam/Const_12"
  op: "Const"
  attr {
    key: "dtype"
    value {
      type: DT_FLOAT
    }
  }
  attr {
    key: "value"
    value {
      tensor {
        dtype: DT_FLOAT
        tensor_shape {
        }
        float_val: 0.0
      }
    }
  }
}
node {
  name: "training/Adam/Const_13"
  op: "Const"
  attr {
    key: "dtype"
    value {
      type: DT_FLOAT
    }
  }
  attr {
    key: "value"
    value {
      tensor {
        dtype: DT_FLOAT
        tensor_shape {
        }
        float_val: inf
      }
    }
  }
}
node {
  name: "training/Adam/clip_by_value_6/Minimum"
  op: "Minimum"
  input: "training/Adam/add_17"
  input: "training/Adam/Const_13"
  attr {
    key: "T"
    value {
      type: DT_FLOAT
    }
  }
}
node {
  name: "training/Adam/clip_by_value_6"
  op: "Maximum"
  input: "training/Adam/clip_by_value_6/Minimum"
  input: "training/Adam/Const_12"
  attr {
    key: "T"
    value {
      type: DT_FLOAT
    }
  }
}
node {
  name: "training/Adam/Sqrt_6"
  op: "Sqrt"
  input: "training/Adam/clip_by_value_6"
  attr {
    key: "T"
    value {
      type: DT_FLOAT
    }
  }
}
node {
  name: "training/Adam/add_18/y"
  op: "Const"
  attr {
    key: "dtype"
    value {
      type: DT_FLOAT
    }
  }
  attr {
    key: "value"
    value {
      tensor {
        dtype: DT_FLOAT
        tensor_shape {
        }
        float_val: 1.0000000116860974e-07
      }
    }
  }
}
node {
  name: "training/Adam/add_18"
  op: "Add"
  input: "training/Adam/Sqrt_6"
  input: "training/Adam/add_18/y"
  attr {
    key: "T"
    value {
      type: DT_FLOAT
    }
  }
}
node {
  name: "training/Adam/truediv_6"
  op: "RealDiv"
  input: "training/Adam/mul_30"
  input: "training/Adam/add_18"
  attr {
    key: "T"
    value {
      type: DT_FLOAT
    }
  }
}
node {
  name: "training/Adam/sub_19"
  op: "Sub"
  input: "dense_1/bias/read"
  input: "training/Adam/truediv_6"
  attr {
    key: "T"
    value {
      type: DT_FLOAT
    }
  }
}
node {
  name: "training/Adam/Assign_15"
  op: "Assign"
  input: "training/Adam/Variable_5"
  input: "training/Adam/add_16"
  attr {
    key: "T"
    value {
      type: DT_FLOAT
    }
  }
  attr {
    key: "_class"
    value {
      list {
        s: "loc:@training/Adam/Variable_5"
      }
    }
  }
  attr {
    key: "use_locking"
    value {
      b: true
    }
  }
  attr {
    key: "validate_shape"
    value {
      b: true
    }
  }
}
node {
  name: "training/Adam/Assign_16"
  op: "Assign"
  input: "training/Adam/Variable_13"
  input: "training/Adam/add_17"
  attr {
    key: "T"
    value {
      type: DT_FLOAT
    }
  }
  attr {
    key: "_class"
    value {
      list {
        s: "loc:@training/Adam/Variable_13"
      }
    }
  }
  attr {
    key: "use_locking"
    value {
      b: true
    }
  }
  attr {
    key: "validate_shape"
    value {
      b: true
    }
  }
}
node {
  name: "training/Adam/Assign_17"
  op: "Assign"
  input: "dense_1/bias"
  input: "training/Adam/sub_19"
  attr {
    key: "T"
    value {
      type: DT_FLOAT
    }
  }
  attr {
    key: "_class"
    value {
      list {
        s: "loc:@dense_1/bias"
      }
    }
  }
  attr {
    key: "use_locking"
    value {
      b: true
    }
  }
  attr {
    key: "validate_shape"
    value {
      b: true
    }
  }
}
node {
  name: "training/Adam/mul_31"
  op: "Mul"
  input: "Adam/beta_1/read"
  input: "training/Adam/Variable_6/read"
  attr {
    key: "T"
    value {
      type: DT_FLOAT
    }
  }
}
node {
  name: "training/Adam/sub_20/x"
  op: "Const"
  attr {
    key: "dtype"
    value {
      type: DT_FLOAT
    }
  }
  attr {
    key: "value"
    value {
      tensor {
        dtype: DT_FLOAT
        tensor_shape {
        }
        float_val: 1.0
      }
    }
  }
}
node {
  name: "training/Adam/sub_20"
  op: "Sub"
  input: "training/Adam/sub_20/x"
  input: "Adam/beta_1/read"
  attr {
    key: "T"
    value {
      type: DT_FLOAT
    }
  }
}
node {
  name: "training/Adam/mul_32"
  op: "Mul"
  input: "training/Adam/sub_20"
  input: "training/Adam/gradients/Probabilities/MatMul_grad/MatMul_1"
  attr {
    key: "T"
    value {
      type: DT_FLOAT
    }
  }
}
node {
  name: "training/Adam/add_19"
  op: "Add"
  input: "training/Adam/mul_31"
  input: "training/Adam/mul_32"
  attr {
    key: "T"
    value {
      type: DT_FLOAT
    }
  }
}
node {
  name: "training/Adam/mul_33"
  op: "Mul"
  input: "Adam/beta_2/read"
  input: "training/Adam/Variable_14/read"
  attr {
    key: "T"
    value {
      type: DT_FLOAT
    }
  }
}
node {
  name: "training/Adam/sub_21/x"
  op: "Const"
  attr {
    key: "dtype"
    value {
      type: DT_FLOAT
    }
  }
  attr {
    key: "value"
    value {
      tensor {
        dtype: DT_FLOAT
        tensor_shape {
        }
        float_val: 1.0
      }
    }
  }
}
node {
  name: "training/Adam/sub_21"
  op: "Sub"
  input: "training/Adam/sub_21/x"
  input: "Adam/beta_2/read"
  attr {
    key: "T"
    value {
      type: DT_FLOAT
    }
  }
}
node {
  name: "training/Adam/Square_6"
  op: "Square"
  input: "training/Adam/gradients/Probabilities/MatMul_grad/MatMul_1"
  attr {
    key: "T"
    value {
      type: DT_FLOAT
    }
  }
}
node {
  name: "training/Adam/mul_34"
  op: "Mul"
  input: "training/Adam/sub_21"
  input: "training/Adam/Square_6"
  attr {
    key: "T"
    value {
      type: DT_FLOAT
    }
  }
}
node {
  name: "training/Adam/add_20"
  op: "Add"
  input: "training/Adam/mul_33"
  input: "training/Adam/mul_34"
  attr {
    key: "T"
    value {
      type: DT_FLOAT
    }
  }
}
node {
  name: "training/Adam/mul_35"
  op: "Mul"
  input: "training/Adam/mul"
  input: "training/Adam/add_19"
  attr {
    key: "T"
    value {
      type: DT_FLOAT
    }
  }
}
node {
  name: "training/Adam/Const_14"
  op: "Const"
  attr {
    key: "dtype"
    value {
      type: DT_FLOAT
    }
  }
  attr {
    key: "value"
    value {
      tensor {
        dtype: DT_FLOAT
        tensor_shape {
        }
        float_val: 0.0
      }
    }
  }
}
node {
  name: "training/Adam/Const_15"
  op: "Const"
  attr {
    key: "dtype"
    value {
      type: DT_FLOAT
    }
  }
  attr {
    key: "value"
    value {
      tensor {
        dtype: DT_FLOAT
        tensor_shape {
        }
        float_val: inf
      }
    }
  }
}
node {
  name: "training/Adam/clip_by_value_7/Minimum"
  op: "Minimum"
  input: "training/Adam/add_20"
  input: "training/Adam/Const_15"
  attr {
    key: "T"
    value {
      type: DT_FLOAT
    }
  }
}
node {
  name: "training/Adam/clip_by_value_7"
  op: "Maximum"
  input: "training/Adam/clip_by_value_7/Minimum"
  input: "training/Adam/Const_14"
  attr {
    key: "T"
    value {
      type: DT_FLOAT
    }
  }
}
node {
  name: "training/Adam/Sqrt_7"
  op: "Sqrt"
  input: "training/Adam/clip_by_value_7"
  attr {
    key: "T"
    value {
      type: DT_FLOAT
    }
  }
}
node {
  name: "training/Adam/add_21/y"
  op: "Const"
  attr {
    key: "dtype"
    value {
      type: DT_FLOAT
    }
  }
  attr {
    key: "value"
    value {
      tensor {
        dtype: DT_FLOAT
        tensor_shape {
        }
        float_val: 1.0000000116860974e-07
      }
    }
  }
}
node {
  name: "training/Adam/add_21"
  op: "Add"
  input: "training/Adam/Sqrt_7"
  input: "training/Adam/add_21/y"
  attr {
    key: "T"
    value {
      type: DT_FLOAT
    }
  }
}
node {
  name: "training/Adam/truediv_7"
  op: "RealDiv"
  input: "training/Adam/mul_35"
  input: "training/Adam/add_21"
  attr {
    key: "T"
    value {
      type: DT_FLOAT
    }
  }
}
node {
  name: "training/Adam/sub_22"
  op: "Sub"
  input: "Probabilities/kernel/read"
  input: "training/Adam/truediv_7"
  attr {
    key: "T"
    value {
      type: DT_FLOAT
    }
  }
}
node {
  name: "training/Adam/Assign_18"
  op: "Assign"
  input: "training/Adam/Variable_6"
  input: "training/Adam/add_19"
  attr {
    key: "T"
    value {
      type: DT_FLOAT
    }
  }
  attr {
    key: "_class"
    value {
      list {
        s: "loc:@training/Adam/Variable_6"
      }
    }
  }
  attr {
    key: "use_locking"
    value {
      b: true
    }
  }
  attr {
    key: "validate_shape"
    value {
      b: true
    }
  }
}
node {
  name: "training/Adam/Assign_19"
  op: "Assign"
  input: "training/Adam/Variable_14"
  input: "training/Adam/add_20"
  attr {
    key: "T"
    value {
      type: DT_FLOAT
    }
  }
  attr {
    key: "_class"
    value {
      list {
        s: "loc:@training/Adam/Variable_14"
      }
    }
  }
  attr {
    key: "use_locking"
    value {
      b: true
    }
  }
  attr {
    key: "validate_shape"
    value {
      b: true
    }
  }
}
node {
  name: "training/Adam/Assign_20"
  op: "Assign"
  input: "Probabilities/kernel"
  input: "training/Adam/sub_22"
  attr {
    key: "T"
    value {
      type: DT_FLOAT
    }
  }
  attr {
    key: "_class"
    value {
      list {
        s: "loc:@Probabilities/kernel"
      }
    }
  }
  attr {
    key: "use_locking"
    value {
      b: true
    }
  }
  attr {
    key: "validate_shape"
    value {
      b: true
    }
  }
}
node {
  name: "training/Adam/mul_36"
  op: "Mul"
  input: "Adam/beta_1/read"
  input: "training/Adam/Variable_7/read"
  attr {
    key: "T"
    value {
      type: DT_FLOAT
    }
  }
}
node {
  name: "training/Adam/sub_23/x"
  op: "Const"
  attr {
    key: "dtype"
    value {
      type: DT_FLOAT
    }
  }
  attr {
    key: "value"
    value {
      tensor {
        dtype: DT_FLOAT
        tensor_shape {
        }
        float_val: 1.0
      }
    }
  }
}
node {
  name: "training/Adam/sub_23"
  op: "Sub"
  input: "training/Adam/sub_23/x"
  input: "Adam/beta_1/read"
  attr {
    key: "T"
    value {
      type: DT_FLOAT
    }
  }
}
node {
  name: "training/Adam/mul_37"
  op: "Mul"
  input: "training/Adam/sub_23"
  input: "training/Adam/gradients/Probabilities/BiasAdd_grad/BiasAddGrad"
  attr {
    key: "T"
    value {
      type: DT_FLOAT
    }
  }
}
node {
  name: "training/Adam/add_22"
  op: "Add"
  input: "training/Adam/mul_36"
  input: "training/Adam/mul_37"
  attr {
    key: "T"
    value {
      type: DT_FLOAT
    }
  }
}
node {
  name: "training/Adam/mul_38"
  op: "Mul"
  input: "Adam/beta_2/read"
  input: "training/Adam/Variable_15/read"
  attr {
    key: "T"
    value {
      type: DT_FLOAT
    }
  }
}
node {
  name: "training/Adam/sub_24/x"
  op: "Const"
  attr {
    key: "dtype"
    value {
      type: DT_FLOAT
    }
  }
  attr {
    key: "value"
    value {
      tensor {
        dtype: DT_FLOAT
        tensor_shape {
        }
        float_val: 1.0
      }
    }
  }
}
node {
  name: "training/Adam/sub_24"
  op: "Sub"
  input: "training/Adam/sub_24/x"
  input: "Adam/beta_2/read"
  attr {
    key: "T"
    value {
      type: DT_FLOAT
    }
  }
}
node {
  name: "training/Adam/Square_7"
  op: "Square"
  input: "training/Adam/gradients/Probabilities/BiasAdd_grad/BiasAddGrad"
  attr {
    key: "T"
    value {
      type: DT_FLOAT
    }
  }
}
node {
  name: "training/Adam/mul_39"
  op: "Mul"
  input: "training/Adam/sub_24"
  input: "training/Adam/Square_7"
  attr {
    key: "T"
    value {
      type: DT_FLOAT
    }
  }
}
node {
  name: "training/Adam/add_23"
  op: "Add"
  input: "training/Adam/mul_38"
  input: "training/Adam/mul_39"
  attr {
    key: "T"
    value {
      type: DT_FLOAT
    }
  }
}
node {
  name: "training/Adam/mul_40"
  op: "Mul"
  input: "training/Adam/mul"
  input: "training/Adam/add_22"
  attr {
    key: "T"
    value {
      type: DT_FLOAT
    }
  }
}
node {
  name: "training/Adam/Const_16"
  op: "Const"
  attr {
    key: "dtype"
    value {
      type: DT_FLOAT
    }
  }
  attr {
    key: "value"
    value {
      tensor {
        dtype: DT_FLOAT
        tensor_shape {
        }
        float_val: 0.0
      }
    }
  }
}
node {
  name: "training/Adam/Const_17"
  op: "Const"
  attr {
    key: "dtype"
    value {
      type: DT_FLOAT
    }
  }
  attr {
    key: "value"
    value {
      tensor {
        dtype: DT_FLOAT
        tensor_shape {
        }
        float_val: inf
      }
    }
  }
}
node {
  name: "training/Adam/clip_by_value_8/Minimum"
  op: "Minimum"
  input: "training/Adam/add_23"
  input: "training/Adam/Const_17"
  attr {
    key: "T"
    value {
      type: DT_FLOAT
    }
  }
}
node {
  name: "training/Adam/clip_by_value_8"
  op: "Maximum"
  input: "training/Adam/clip_by_value_8/Minimum"
  input: "training/Adam/Const_16"
  attr {
    key: "T"
    value {
      type: DT_FLOAT
    }
  }
}
node {
  name: "training/Adam/Sqrt_8"
  op: "Sqrt"
  input: "training/Adam/clip_by_value_8"
  attr {
    key: "T"
    value {
      type: DT_FLOAT
    }
  }
}
node {
  name: "training/Adam/add_24/y"
  op: "Const"
  attr {
    key: "dtype"
    value {
      type: DT_FLOAT
    }
  }
  attr {
    key: "value"
    value {
      tensor {
        dtype: DT_FLOAT
        tensor_shape {
        }
        float_val: 1.0000000116860974e-07
      }
    }
  }
}
node {
  name: "training/Adam/add_24"
  op: "Add"
  input: "training/Adam/Sqrt_8"
  input: "training/Adam/add_24/y"
  attr {
    key: "T"
    value {
      type: DT_FLOAT
    }
  }
}
node {
  name: "training/Adam/truediv_8"
  op: "RealDiv"
  input: "training/Adam/mul_40"
  input: "training/Adam/add_24"
  attr {
    key: "T"
    value {
      type: DT_FLOAT
    }
  }
}
node {
  name: "training/Adam/sub_25"
  op: "Sub"
  input: "Probabilities/bias/read"
  input: "training/Adam/truediv_8"
  attr {
    key: "T"
    value {
      type: DT_FLOAT
    }
  }
}
node {
  name: "training/Adam/Assign_21"
  op: "Assign"
  input: "training/Adam/Variable_7"
  input: "training/Adam/add_22"
  attr {
    key: "T"
    value {
      type: DT_FLOAT
    }
  }
  attr {
    key: "_class"
    value {
      list {
        s: "loc:@training/Adam/Variable_7"
      }
    }
  }
  attr {
    key: "use_locking"
    value {
      b: true
    }
  }
  attr {
    key: "validate_shape"
    value {
      b: true
    }
  }
}
node {
  name: "training/Adam/Assign_22"
  op: "Assign"
  input: "training/Adam/Variable_15"
  input: "training/Adam/add_23"
  attr {
    key: "T"
    value {
      type: DT_FLOAT
    }
  }
  attr {
    key: "_class"
    value {
      list {
        s: "loc:@training/Adam/Variable_15"
      }
    }
  }
  attr {
    key: "use_locking"
    value {
      b: true
    }
  }
  attr {
    key: "validate_shape"
    value {
      b: true
    }
  }
}
node {
  name: "training/Adam/Assign_23"
  op: "Assign"
  input: "Probabilities/bias"
  input: "training/Adam/sub_25"
  attr {
    key: "T"
    value {
      type: DT_FLOAT
    }
  }
  attr {
    key: "_class"
    value {
      list {
        s: "loc:@Probabilities/bias"
      }
    }
  }
  attr {
    key: "use_locking"
    value {
      b: true
    }
  }
  attr {
    key: "validate_shape"
    value {
      b: true
    }
  }
}
node {
  name: "training/group_deps"
  op: "NoOp"
  input: "^loss/mul"
  input: "^metrics/acc/Mean"
  input: "^training/Adam/AssignAdd"
  input: "^training/Adam/Assign"
  input: "^training/Adam/Assign_1"
  input: "^training/Adam/Assign_2"
  input: "^training/Adam/Assign_3"
  input: "^training/Adam/Assign_4"
  input: "^training/Adam/Assign_5"
  input: "^training/Adam/Assign_6"
  input: "^training/Adam/Assign_7"
  input: "^training/Adam/Assign_8"
  input: "^training/Adam/Assign_9"
  input: "^training/Adam/Assign_10"
  input: "^training/Adam/Assign_11"
  input: "^training/Adam/Assign_12"
  input: "^training/Adam/Assign_13"
  input: "^training/Adam/Assign_14"
  input: "^training/Adam/Assign_15"
  input: "^training/Adam/Assign_16"
  input: "^training/Adam/Assign_17"
  input: "^training/Adam/Assign_18"
  input: "^training/Adam/Assign_19"
  input: "^training/Adam/Assign_20"
  input: "^training/Adam/Assign_21"
  input: "^training/Adam/Assign_22"
  input: "^training/Adam/Assign_23"
}
node {
  name: "IsVariableInitialized_8"
  op: "IsVariableInitialized"
  input: "Adam/iterations"
  attr {
    key: "_class"
    value {
      list {
        s: "loc:@Adam/iterations"
      }
    }
  }
  attr {
    key: "dtype"
    value {
      type: DT_INT64
    }
  }
}
node {
  name: "IsVariableInitialized_9"
  op: "IsVariableInitialized"
  input: "Adam/lr"
  attr {
    key: "_class"
    value {
      list {
        s: "loc:@Adam/lr"
      }
    }
  }
  attr {
    key: "dtype"
    value {
      type: DT_FLOAT
    }
  }
}
node {
  name: "IsVariableInitialized_10"
  op: "IsVariableInitialized"
  input: "Adam/beta_1"
  attr {
    key: "_class"
    value {
      list {
        s: "loc:@Adam/beta_1"
      }
    }
  }
  attr {
    key: "dtype"
    value {
      type: DT_FLOAT
    }
  }
}
node {
  name: "IsVariableInitialized_11"
  op: "IsVariableInitialized"
  input: "Adam/beta_2"
  attr {
    key: "_class"
    value {
      list {
        s: "loc:@Adam/beta_2"
      }
    }
  }
  attr {
    key: "dtype"
    value {
      type: DT_FLOAT
    }
  }
}
node {
  name: "IsVariableInitialized_12"
  op: "IsVariableInitialized"
  input: "Adam/decay"
  attr {
    key: "_class"
    value {
      list {
        s: "loc:@Adam/decay"
      }
    }
  }
  attr {
    key: "dtype"
    value {
      type: DT_FLOAT
    }
  }
}
node {
  name: "IsVariableInitialized_13"
  op: "IsVariableInitialized"
  input: "training/Adam/Variable"
  attr {
    key: "_class"
    value {
      list {
        s: "loc:@training/Adam/Variable"
      }
    }
  }
  attr {
    key: "dtype"
    value {
      type: DT_FLOAT
    }
  }
}
node {
  name: "IsVariableInitialized_14"
  op: "IsVariableInitialized"
  input: "training/Adam/Variable_1"
  attr {
    key: "_class"
    value {
      list {
        s: "loc:@training/Adam/Variable_1"
      }
    }
  }
  attr {
    key: "dtype"
    value {
      type: DT_FLOAT
    }
  }
}
node {
  name: "IsVariableInitialized_15"
  op: "IsVariableInitialized"
  input: "training/Adam/Variable_2"
  attr {
    key: "_class"
    value {
      list {
        s: "loc:@training/Adam/Variable_2"
      }
    }
  }
  attr {
    key: "dtype"
    value {
      type: DT_FLOAT
    }
  }
}
node {
  name: "IsVariableInitialized_16"
  op: "IsVariableInitialized"
  input: "training/Adam/Variable_3"
  attr {
    key: "_class"
    value {
      list {
        s: "loc:@training/Adam/Variable_3"
      }
    }
  }
  attr {
    key: "dtype"
    value {
      type: DT_FLOAT
    }
  }
}
node {
  name: "IsVariableInitialized_17"
  op: "IsVariableInitialized"
  input: "training/Adam/Variable_4"
  attr {
    key: "_class"
    value {
      list {
        s: "loc:@training/Adam/Variable_4"
      }
    }
  }
  attr {
    key: "dtype"
    value {
      type: DT_FLOAT
    }
  }
}
node {
  name: "IsVariableInitialized_18"
  op: "IsVariableInitialized"
  input: "training/Adam/Variable_5"
  attr {
    key: "_class"
    value {
      list {
        s: "loc:@training/Adam/Variable_5"
      }
    }
  }
  attr {
    key: "dtype"
    value {
      type: DT_FLOAT
    }
  }
}
node {
  name: "IsVariableInitialized_19"
  op: "IsVariableInitialized"
  input: "training/Adam/Variable_6"
  attr {
    key: "_class"
    value {
      list {
        s: "loc:@training/Adam/Variable_6"
      }
    }
  }
  attr {
    key: "dtype"
    value {
      type: DT_FLOAT
    }
  }
}
node {
  name: "IsVariableInitialized_20"
  op: "IsVariableInitialized"
  input: "training/Adam/Variable_7"
  attr {
    key: "_class"
    value {
      list {
        s: "loc:@training/Adam/Variable_7"
      }
    }
  }
  attr {
    key: "dtype"
    value {
      type: DT_FLOAT
    }
  }
}
node {
  name: "IsVariableInitialized_21"
  op: "IsVariableInitialized"
  input: "training/Adam/Variable_8"
  attr {
    key: "_class"
    value {
      list {
        s: "loc:@training/Adam/Variable_8"
      }
    }
  }
  attr {
    key: "dtype"
    value {
      type: DT_FLOAT
    }
  }
}
node {
  name: "IsVariableInitialized_22"
  op: "IsVariableInitialized"
  input: "training/Adam/Variable_9"
  attr {
    key: "_class"
    value {
      list {
        s: "loc:@training/Adam/Variable_9"
      }
    }
  }
  attr {
    key: "dtype"
    value {
      type: DT_FLOAT
    }
  }
}
node {
  name: "IsVariableInitialized_23"
  op: "IsVariableInitialized"
  input: "training/Adam/Variable_10"
  attr {
    key: "_class"
    value {
      list {
        s: "loc:@training/Adam/Variable_10"
      }
    }
  }
  attr {
    key: "dtype"
    value {
      type: DT_FLOAT
    }
  }
}
node {
  name: "IsVariableInitialized_24"
  op: "IsVariableInitialized"
  input: "training/Adam/Variable_11"
  attr {
    key: "_class"
    value {
      list {
        s: "loc:@training/Adam/Variable_11"
      }
    }
  }
  attr {
    key: "dtype"
    value {
      type: DT_FLOAT
    }
  }
}
node {
  name: "IsVariableInitialized_25"
  op: "IsVariableInitialized"
  input: "training/Adam/Variable_12"
  attr {
    key: "_class"
    value {
      list {
        s: "loc:@training/Adam/Variable_12"
      }
    }
  }
  attr {
    key: "dtype"
    value {
      type: DT_FLOAT
    }
  }
}
node {
  name: "IsVariableInitialized_26"
  op: "IsVariableInitialized"
  input: "training/Adam/Variable_13"
  attr {
    key: "_class"
    value {
      list {
        s: "loc:@training/Adam/Variable_13"
      }
    }
  }
  attr {
    key: "dtype"
    value {
      type: DT_FLOAT
    }
  }
}
node {
  name: "IsVariableInitialized_27"
  op: "IsVariableInitialized"
  input: "training/Adam/Variable_14"
  attr {
    key: "_class"
    value {
      list {
        s: "loc:@training/Adam/Variable_14"
      }
    }
  }
  attr {
    key: "dtype"
    value {
      type: DT_FLOAT
    }
  }
}
node {
  name: "IsVariableInitialized_28"
  op: "IsVariableInitialized"
  input: "training/Adam/Variable_15"
  attr {
    key: "_class"
    value {
      list {
        s: "loc:@training/Adam/Variable_15"
      }
    }
  }
  attr {
    key: "dtype"
    value {
      type: DT_FLOAT
    }
  }
}
node {
  name: "IsVariableInitialized_29"
  op: "IsVariableInitialized"
  input: "training/Adam/Variable_16"
  attr {
    key: "_class"
    value {
      list {
        s: "loc:@training/Adam/Variable_16"
      }
    }
  }
  attr {
    key: "dtype"
    value {
      type: DT_FLOAT
    }
  }
}
node {
  name: "IsVariableInitialized_30"
  op: "IsVariableInitialized"
  input: "training/Adam/Variable_17"
  attr {
    key: "_class"
    value {
      list {
        s: "loc:@training/Adam/Variable_17"
      }
    }
  }
  attr {
    key: "dtype"
    value {
      type: DT_FLOAT
    }
  }
}
node {
  name: "IsVariableInitialized_31"
  op: "IsVariableInitialized"
  input: "training/Adam/Variable_18"
  attr {
    key: "_class"
    value {
      list {
        s: "loc:@training/Adam/Variable_18"
      }
    }
  }
  attr {
    key: "dtype"
    value {
      type: DT_FLOAT
    }
  }
}
node {
  name: "IsVariableInitialized_32"
  op: "IsVariableInitialized"
  input: "training/Adam/Variable_19"
  attr {
    key: "_class"
    value {
      list {
        s: "loc:@training/Adam/Variable_19"
      }
    }
  }
  attr {
    key: "dtype"
    value {
      type: DT_FLOAT
    }
  }
}
node {
  name: "IsVariableInitialized_33"
  op: "IsVariableInitialized"
  input: "training/Adam/Variable_20"
  attr {
    key: "_class"
    value {
      list {
        s: "loc:@training/Adam/Variable_20"
      }
    }
  }
  attr {
    key: "dtype"
    value {
      type: DT_FLOAT
    }
  }
}
node {
  name: "IsVariableInitialized_34"
  op: "IsVariableInitialized"
  input: "training/Adam/Variable_21"
  attr {
    key: "_class"
    value {
      list {
        s: "loc:@training/Adam/Variable_21"
      }
    }
  }
  attr {
    key: "dtype"
    value {
      type: DT_FLOAT
    }
  }
}
node {
  name: "IsVariableInitialized_35"
  op: "IsVariableInitialized"
  input: "training/Adam/Variable_22"
  attr {
    key: "_class"
    value {
      list {
        s: "loc:@training/Adam/Variable_22"
      }
    }
  }
  attr {
    key: "dtype"
    value {
      type: DT_FLOAT
    }
  }
}
node {
  name: "IsVariableInitialized_36"
  op: "IsVariableInitialized"
  input: "training/Adam/Variable_23"
  attr {
    key: "_class"
    value {
      list {
        s: "loc:@training/Adam/Variable_23"
      }
    }
  }
  attr {
    key: "dtype"
    value {
      type: DT_FLOAT
    }
  }
}
node {
  name: "init_1"
  op: "NoOp"
  input: "^Adam/iterations/Assign"
  input: "^Adam/lr/Assign"
  input: "^Adam/beta_1/Assign"
  input: "^Adam/beta_2/Assign"
  input: "^Adam/decay/Assign"
  input: "^training/Adam/Variable/Assign"
  input: "^training/Adam/Variable_1/Assign"
  input: "^training/Adam/Variable_2/Assign"
  input: "^training/Adam/Variable_3/Assign"
  input: "^training/Adam/Variable_4/Assign"
  input: "^training/Adam/Variable_5/Assign"
  input: "^training/Adam/Variable_6/Assign"
  input: "^training/Adam/Variable_7/Assign"
  input: "^training/Adam/Variable_8/Assign"
  input: "^training/Adam/Variable_9/Assign"
  input: "^training/Adam/Variable_10/Assign"
  input: "^training/Adam/Variable_11/Assign"
  input: "^training/Adam/Variable_12/Assign"
  input: "^training/Adam/Variable_13/Assign"
  input: "^training/Adam/Variable_14/Assign"
  input: "^training/Adam/Variable_15/Assign"
  input: "^training/Adam/Variable_16/Assign"
  input: "^training/Adam/Variable_17/Assign"
  input: "^training/Adam/Variable_18/Assign"
  input: "^training/Adam/Variable_19/Assign"
  input: "^training/Adam/Variable_20/Assign"
  input: "^training/Adam/Variable_21/Assign"
  input: "^training/Adam/Variable_22/Assign"
  input: "^training/Adam/Variable_23/Assign"
}
node {
  name: "Placeholder_8"
  op: "Placeholder"
  attr {
    key: "dtype"
    value {
      type: DT_INT64
    }
  }
  attr {
    key: "shape"
    value {
      shape {
      }
    }
  }
}
node {
  name: "Assign_8"
  op: "Assign"
  input: "Adam/iterations"
  input: "Placeholder_8"
  attr {
    key: "T"
    value {
      type: DT_INT64
    }
  }
  attr {
    key: "_class"
    value {
      list {
        s: "loc:@Adam/iterations"
      }
    }
  }
  attr {
    key: "use_locking"
    value {
      b: false
    }
  }
  attr {
    key: "validate_shape"
    value {
      b: true
    }
  }
}
node {
  name: "Placeholder_9"
  op: "Placeholder"
  attr {
    key: "dtype"
    value {
      type: DT_FLOAT
    }
  }
  attr {
    key: "shape"
    value {
      shape {
        dim {
          size: 3
        }
        dim {
          size: 3
        }
        dim {
          size: 3
        }
        dim {
          size: 32
        }
      }
    }
  }
}
node {
  name: "Assign_9"
  op: "Assign"
  input: "training/Adam/Variable"
  input: "Placeholder_9"
  attr {
    key: "T"
    value {
      type: DT_FLOAT
    }
  }
  attr {
    key: "_class"
    value {
      list {
        s: "loc:@training/Adam/Variable"
      }
    }
  }
  attr {
    key: "use_locking"
    value {
      b: false
    }
  }
  attr {
    key: "validate_shape"
    value {
      b: true
    }
  }
}
node {
  name: "Placeholder_10"
  op: "Placeholder"
  attr {
    key: "dtype"
    value {
      type: DT_FLOAT
    }
  }
  attr {
    key: "shape"
    value {
      shape {
        dim {
          size: 32
        }
      }
    }
  }
}
node {
  name: "Assign_10"
  op: "Assign"
  input: "training/Adam/Variable_1"
  input: "Placeholder_10"
  attr {
    key: "T"
    value {
      type: DT_FLOAT
    }
  }
  attr {
    key: "_class"
    value {
      list {
        s: "loc:@training/Adam/Variable_1"
      }
    }
  }
  attr {
    key: "use_locking"
    value {
      b: false
    }
  }
  attr {
    key: "validate_shape"
    value {
      b: true
    }
  }
}
node {
  name: "Placeholder_11"
  op: "Placeholder"
  attr {
    key: "dtype"
    value {
      type: DT_FLOAT
    }
  }
  attr {
    key: "shape"
    value {
      shape {
        dim {
          size: 3
        }
        dim {
          size: 3
        }
        dim {
          size: 32
        }
        dim {
          size: 32
        }
      }
    }
  }
}
node {
  name: "Assign_11"
  op: "Assign"
  input: "training/Adam/Variable_2"
  input: "Placeholder_11"
  attr {
    key: "T"
    value {
      type: DT_FLOAT
    }
  }
  attr {
    key: "_class"
    value {
      list {
        s: "loc:@training/Adam/Variable_2"
      }
    }
  }
  attr {
    key: "use_locking"
    value {
      b: false
    }
  }
  attr {
    key: "validate_shape"
    value {
      b: true
    }
  }
}
node {
  name: "Placeholder_12"
  op: "Placeholder"
  attr {
    key: "dtype"
    value {
      type: DT_FLOAT
    }
  }
  attr {
    key: "shape"
    value {
      shape {
        dim {
          size: 32
        }
      }
    }
  }
}
node {
  name: "Assign_12"
  op: "Assign"
  input: "training/Adam/Variable_3"
  input: "Placeholder_12"
  attr {
    key: "T"
    value {
      type: DT_FLOAT
    }
  }
  attr {
    key: "_class"
    value {
      list {
        s: "loc:@training/Adam/Variable_3"
      }
    }
  }
  attr {
    key: "use_locking"
    value {
      b: false
    }
  }
  attr {
    key: "validate_shape"
    value {
      b: true
    }
  }
}
node {
  name: "Placeholder_13"
  op: "Placeholder"
  attr {
    key: "dtype"
    value {
      type: DT_FLOAT
    }
  }
  attr {
    key: "shape"
    value {
      shape {
        dim {
          size: 288
        }
        dim {
          size: 128
        }
      }
    }
  }
}
node {
  name: "Assign_13"
  op: "Assign"
  input: "training/Adam/Variable_4"
  input: "Placeholder_13"
  attr {
    key: "T"
    value {
      type: DT_FLOAT
    }
  }
  attr {
    key: "_class"
    value {
      list {
        s: "loc:@training/Adam/Variable_4"
      }
    }
  }
  attr {
    key: "use_locking"
    value {
      b: false
    }
  }
  attr {
    key: "validate_shape"
    value {
      b: true
    }
  }
}
node {
  name: "Placeholder_14"
  op: "Placeholder"
  attr {
    key: "dtype"
    value {
      type: DT_FLOAT
    }
  }
  attr {
    key: "shape"
    value {
      shape {
        dim {
          size: 128
        }
      }
    }
  }
}
node {
  name: "Assign_14"
  op: "Assign"
  input: "training/Adam/Variable_5"
  input: "Placeholder_14"
  attr {
    key: "T"
    value {
      type: DT_FLOAT
    }
  }
  attr {
    key: "_class"
    value {
      list {
        s: "loc:@training/Adam/Variable_5"
      }
    }
  }
  attr {
    key: "use_locking"
    value {
      b: false
    }
  }
  attr {
    key: "validate_shape"
    value {
      b: true
    }
  }
}
node {
  name: "Placeholder_15"
  op: "Placeholder"
  attr {
    key: "dtype"
    value {
      type: DT_FLOAT
    }
  }
  attr {
    key: "shape"
    value {
      shape {
        dim {
          size: 128
        }
        dim {
          size: 10
        }
      }
    }
  }
}
node {
  name: "Assign_15"
  op: "Assign"
  input: "training/Adam/Variable_6"
  input: "Placeholder_15"
  attr {
    key: "T"
    value {
      type: DT_FLOAT
    }
  }
  attr {
    key: "_class"
    value {
      list {
        s: "loc:@training/Adam/Variable_6"
      }
    }
  }
  attr {
    key: "use_locking"
    value {
      b: false
    }
  }
  attr {
    key: "validate_shape"
    value {
      b: true
    }
  }
}
node {
  name: "Placeholder_16"
  op: "Placeholder"
  attr {
    key: "dtype"
    value {
      type: DT_FLOAT
    }
  }
  attr {
    key: "shape"
    value {
      shape {
        dim {
          size: 10
        }
      }
    }
  }
}
node {
  name: "Assign_16"
  op: "Assign"
  input: "training/Adam/Variable_7"
  input: "Placeholder_16"
  attr {
    key: "T"
    value {
      type: DT_FLOAT
    }
  }
  attr {
    key: "_class"
    value {
      list {
        s: "loc:@training/Adam/Variable_7"
      }
    }
  }
  attr {
    key: "use_locking"
    value {
      b: false
    }
  }
  attr {
    key: "validate_shape"
    value {
      b: true
    }
  }
}
node {
  name: "Placeholder_17"
  op: "Placeholder"
  attr {
    key: "dtype"
    value {
      type: DT_FLOAT
    }
  }
  attr {
    key: "shape"
    value {
      shape {
        dim {
          size: 3
        }
        dim {
          size: 3
        }
        dim {
          size: 3
        }
        dim {
          size: 32
        }
      }
    }
  }
}
node {
  name: "Assign_17"
  op: "Assign"
  input: "training/Adam/Variable_8"
  input: "Placeholder_17"
  attr {
    key: "T"
    value {
      type: DT_FLOAT
    }
  }
  attr {
    key: "_class"
    value {
      list {
        s: "loc:@training/Adam/Variable_8"
      }
    }
  }
  attr {
    key: "use_locking"
    value {
      b: false
    }
  }
  attr {
    key: "validate_shape"
    value {
      b: true
    }
  }
}
node {
  name: "Placeholder_18"
  op: "Placeholder"
  attr {
    key: "dtype"
    value {
      type: DT_FLOAT
    }
  }
  attr {
    key: "shape"
    value {
      shape {
        dim {
          size: 32
        }
      }
    }
  }
}
node {
  name: "Assign_18"
  op: "Assign"
  input: "training/Adam/Variable_9"
  input: "Placeholder_18"
  attr {
    key: "T"
    value {
      type: DT_FLOAT
    }
  }
  attr {
    key: "_class"
    value {
      list {
        s: "loc:@training/Adam/Variable_9"
      }
    }
  }
  attr {
    key: "use_locking"
    value {
      b: false
    }
  }
  attr {
    key: "validate_shape"
    value {
      b: true
    }
  }
}
node {
  name: "Placeholder_19"
  op: "Placeholder"
  attr {
    key: "dtype"
    value {
      type: DT_FLOAT
    }
  }
  attr {
    key: "shape"
    value {
      shape {
        dim {
          size: 3
        }
        dim {
          size: 3
        }
        dim {
          size: 32
        }
        dim {
          size: 32
        }
      }
    }
  }
}
node {
  name: "Assign_19"
  op: "Assign"
  input: "training/Adam/Variable_10"
  input: "Placeholder_19"
  attr {
    key: "T"
    value {
      type: DT_FLOAT
    }
  }
  attr {
    key: "_class"
    value {
      list {
        s: "loc:@training/Adam/Variable_10"
      }
    }
  }
  attr {
    key: "use_locking"
    value {
      b: false
    }
  }
  attr {
    key: "validate_shape"
    value {
      b: true
    }
  }
}
node {
  name: "Placeholder_20"
  op: "Placeholder"
  attr {
    key: "dtype"
    value {
      type: DT_FLOAT
    }
  }
  attr {
    key: "shape"
    value {
      shape {
        dim {
          size: 32
        }
      }
    }
  }
}
node {
  name: "Assign_20"
  op: "Assign"
  input: "training/Adam/Variable_11"
  input: "Placeholder_20"
  attr {
    key: "T"
    value {
      type: DT_FLOAT
    }
  }
  attr {
    key: "_class"
    value {
      list {
        s: "loc:@training/Adam/Variable_11"
      }
    }
  }
  attr {
    key: "use_locking"
    value {
      b: false
    }
  }
  attr {
    key: "validate_shape"
    value {
      b: true
    }
  }
}
node {
  name: "Placeholder_21"
  op: "Placeholder"
  attr {
    key: "dtype"
    value {
      type: DT_FLOAT
    }
  }
  attr {
    key: "shape"
    value {
      shape {
        dim {
          size: 288
        }
        dim {
          size: 128
        }
      }
    }
  }
}
node {
  name: "Assign_21"
  op: "Assign"
  input: "training/Adam/Variable_12"
  input: "Placeholder_21"
  attr {
    key: "T"
    value {
      type: DT_FLOAT
    }
  }
  attr {
    key: "_class"
    value {
      list {
        s: "loc:@training/Adam/Variable_12"
      }
    }
  }
  attr {
    key: "use_locking"
    value {
      b: false
    }
  }
  attr {
    key: "validate_shape"
    value {
      b: true
    }
  }
}
node {
  name: "Placeholder_22"
  op: "Placeholder"
  attr {
    key: "dtype"
    value {
      type: DT_FLOAT
    }
  }
  attr {
    key: "shape"
    value {
      shape {
        dim {
          size: 128
        }
      }
    }
  }
}
node {
  name: "Assign_22"
  op: "Assign"
  input: "training/Adam/Variable_13"
  input: "Placeholder_22"
  attr {
    key: "T"
    value {
      type: DT_FLOAT
    }
  }
  attr {
    key: "_class"
    value {
      list {
        s: "loc:@training/Adam/Variable_13"
      }
    }
  }
  attr {
    key: "use_locking"
    value {
      b: false
    }
  }
  attr {
    key: "validate_shape"
    value {
      b: true
    }
  }
}
node {
  name: "Placeholder_23"
  op: "Placeholder"
  attr {
    key: "dtype"
    value {
      type: DT_FLOAT
    }
  }
  attr {
    key: "shape"
    value {
      shape {
        dim {
          size: 128
        }
        dim {
          size: 10
        }
      }
    }
  }
}
node {
  name: "Assign_23"
  op: "Assign"
  input: "training/Adam/Variable_14"
  input: "Placeholder_23"
  attr {
    key: "T"
    value {
      type: DT_FLOAT
    }
  }
  attr {
    key: "_class"
    value {
      list {
        s: "loc:@training/Adam/Variable_14"
      }
    }
  }
  attr {
    key: "use_locking"
    value {
      b: false
    }
  }
  attr {
    key: "validate_shape"
    value {
      b: true
    }
  }
}
node {
  name: "Placeholder_24"
  op: "Placeholder"
  attr {
    key: "dtype"
    value {
      type: DT_FLOAT
    }
  }
  attr {
    key: "shape"
    value {
      shape {
        dim {
          size: 10
        }
      }
    }
  }
}
node {
  name: "Assign_24"
  op: "Assign"
  input: "training/Adam/Variable_15"
  input: "Placeholder_24"
  attr {
    key: "T"
    value {
      type: DT_FLOAT
    }
  }
  attr {
    key: "_class"
    value {
      list {
        s: "loc:@training/Adam/Variable_15"
      }
    }
  }
  attr {
    key: "use_locking"
    value {
      b: false
    }
  }
  attr {
    key: "validate_shape"
    value {
      b: true
    }
  }
}
node {
  name: "Placeholder_25"
  op: "Placeholder"
  attr {
    key: "dtype"
    value {
      type: DT_FLOAT
    }
  }
  attr {
    key: "shape"
    value {
      shape {
        dim {
          size: 1
        }
      }
    }
  }
}
node {
  name: "Assign_25"
  op: "Assign"
  input: "training/Adam/Variable_16"
  input: "Placeholder_25"
  attr {
    key: "T"
    value {
      type: DT_FLOAT
    }
  }
  attr {
    key: "_class"
    value {
      list {
        s: "loc:@training/Adam/Variable_16"
      }
    }
  }
  attr {
    key: "use_locking"
    value {
      b: false
    }
  }
  attr {
    key: "validate_shape"
    value {
      b: true
    }
  }
}
node {
  name: "Placeholder_26"
  op: "Placeholder"
  attr {
    key: "dtype"
    value {
      type: DT_FLOAT
    }
  }
  attr {
    key: "shape"
    value {
      shape {
        dim {
          size: 1
        }
      }
    }
  }
}
node {
  name: "Assign_26"
  op: "Assign"
  input: "training/Adam/Variable_17"
  input: "Placeholder_26"
  attr {
    key: "T"
    value {
      type: DT_FLOAT
    }
  }
  attr {
    key: "_class"
    value {
      list {
        s: "loc:@training/Adam/Variable_17"
      }
    }
  }
  attr {
    key: "use_locking"
    value {
      b: false
    }
  }
  attr {
    key: "validate_shape"
    value {
      b: true
    }
  }
}
node {
  name: "Placeholder_27"
  op: "Placeholder"
  attr {
    key: "dtype"
    value {
      type: DT_FLOAT
    }
  }
  attr {
    key: "shape"
    value {
      shape {
        dim {
          size: 1
        }
      }
    }
  }
}
node {
  name: "Assign_27"
  op: "Assign"
  input: "training/Adam/Variable_18"
  input: "Placeholder_27"
  attr {
    key: "T"
    value {
      type: DT_FLOAT
    }
  }
  attr {
    key: "_class"
    value {
      list {
        s: "loc:@training/Adam/Variable_18"
      }
    }
  }
  attr {
    key: "use_locking"
    value {
      b: false
    }
  }
  attr {
    key: "validate_shape"
    value {
      b: true
    }
  }
}
node {
  name: "Placeholder_28"
  op: "Placeholder"
  attr {
    key: "dtype"
    value {
      type: DT_FLOAT
    }
  }
  attr {
    key: "shape"
    value {
      shape {
        dim {
          size: 1
        }
      }
    }
  }
}
node {
  name: "Assign_28"
  op: "Assign"
  input: "training/Adam/Variable_19"
  input: "Placeholder_28"
  attr {
    key: "T"
    value {
      type: DT_FLOAT
    }
  }
  attr {
    key: "_class"
    value {
      list {
        s: "loc:@training/Adam/Variable_19"
      }
    }
  }
  attr {
    key: "use_locking"
    value {
      b: false
    }
  }
  attr {
    key: "validate_shape"
    value {
      b: true
    }
  }
}
node {
  name: "Placeholder_29"
  op: "Placeholder"
  attr {
    key: "dtype"
    value {
      type: DT_FLOAT
    }
  }
  attr {
    key: "shape"
    value {
      shape {
        dim {
          size: 1
        }
      }
    }
  }
}
node {
  name: "Assign_29"
  op: "Assign"
  input: "training/Adam/Variable_20"
  input: "Placeholder_29"
  attr {
    key: "T"
    value {
      type: DT_FLOAT
    }
  }
  attr {
    key: "_class"
    value {
      list {
        s: "loc:@training/Adam/Variable_20"
      }
    }
  }
  attr {
    key: "use_locking"
    value {
      b: false
    }
  }
  attr {
    key: "validate_shape"
    value {
      b: true
    }
  }
}
node {
  name: "Placeholder_30"
  op: "Placeholder"
  attr {
    key: "dtype"
    value {
      type: DT_FLOAT
    }
  }
  attr {
    key: "shape"
    value {
      shape {
        dim {
          size: 1
        }
      }
    }
  }
}
node {
  name: "Assign_30"
  op: "Assign"
  input: "training/Adam/Variable_21"
  input: "Placeholder_30"
  attr {
    key: "T"
    value {
      type: DT_FLOAT
    }
  }
  attr {
    key: "_class"
    value {
      list {
        s: "loc:@training/Adam/Variable_21"
      }
    }
  }
  attr {
    key: "use_locking"
    value {
      b: false
    }
  }
  attr {
    key: "validate_shape"
    value {
      b: true
    }
  }
}
node {
  name: "Placeholder_31"
  op: "Placeholder"
  attr {
    key: "dtype"
    value {
      type: DT_FLOAT
    }
  }
  attr {
    key: "shape"
    value {
      shape {
        dim {
          size: 1
        }
      }
    }
  }
}
node {
  name: "Assign_31"
  op: "Assign"
  input: "training/Adam/Variable_22"
  input: "Placeholder_31"
  attr {
    key: "T"
    value {
      type: DT_FLOAT
    }
  }
  attr {
    key: "_class"
    value {
      list {
        s: "loc:@training/Adam/Variable_22"
      }
    }
  }
  attr {
    key: "use_locking"
    value {
      b: false
    }
  }
  attr {
    key: "validate_shape"
    value {
      b: true
    }
  }
}
node {
  name: "Placeholder_32"
  op: "Placeholder"
  attr {
    key: "dtype"
    value {
      type: DT_FLOAT
    }
  }
  attr {
    key: "shape"
    value {
      shape {
        dim {
          size: 1
        }
      }
    }
  }
}
node {
  name: "Assign_32"
  op: "Assign"
  input: "training/Adam/Variable_23"
  input: "Placeholder_32"
  attr {
    key: "T"
    value {
      type: DT_FLOAT
    }
  }
  attr {
    key: "_class"
    value {
      list {
        s: "loc:@training/Adam/Variable_23"
      }
    }
  }
  attr {
    key: "use_locking"
    value {
      b: false
    }
  }
  attr {
    key: "validate_shape"
    value {
      b: true
    }
  }
}
node {
  name: "strided_slice/stack"
  op: "Const"
  attr {
    key: "dtype"
    value {
      type: DT_INT32
    }
  }
  attr {
    key: "value"
    value {
      tensor {
        dtype: DT_INT32
        tensor_shape {
          dim {
            size: 1
          }
        }
        int_val: 0
      }
    }
  }
}
node {
  name: "strided_slice/stack_1"
  op: "Const"
  attr {
    key: "dtype"
    value {
      type: DT_INT32
    }
  }
  attr {
    key: "value"
    value {
      tensor {
        dtype: DT_INT32
        tensor_shape {
          dim {
            size: 1
          }
        }
        int_val: 1
      }
    }
  }
}
node {
  name: "strided_slice/stack_2"
  op: "Const"
  attr {
    key: "dtype"
    value {
      type: DT_INT32
    }
  }
  attr {
    key: "value"
    value {
      tensor {
        dtype: DT_INT32
        tensor_shape {
          dim {
            size: 1
          }
        }
        int_val: 1
      }
    }
  }
}
node {
  name: "strided_slice"
  op: "StridedSlice"
  input: "Probabilities/Softmax"
  input: "strided_slice/stack"
  input: "strided_slice/stack_1"
  input: "strided_slice/stack_2"
  attr {
    key: "Index"
    value {
      type: DT_INT32
    }
  }
  attr {
    key: "T"
    value {
      type: DT_FLOAT
    }
  }
  attr {
    key: "begin_mask"
    value {
      i: 0
    }
  }
  attr {
    key: "ellipsis_mask"
    value {
      i: 0
    }
  }
  attr {
    key: "end_mask"
    value {
      i: 0
    }
  }
  attr {
    key: "new_axis_mask"
    value {
      i: 0
    }
  }
  attr {
    key: "shrink_axis_mask"
    value {
      i: 1
    }
  }
}
node {
  name: "conversor_output_0"
  op: "Identity"
  input: "strided_slice"
  attr {
    key: "T"
    value {
      type: DT_FLOAT
    }
  }
}
versions {
  producer: 26
}
